models/model4.pt (torch, 345652 bytes, 7 tensors)

input_layer.weight f4 [128, 600]
000000 50 b6 6c bf a5 c4 99 be d0 df e3 3e 2a 43 de be
       -0.92465687 -0.3003284 0.44506693 -0.43410617
000010 61 fe 67 be 0d 2d 79 3e 47 f9 88 3f d8 f7 a1 bf
       -0.22655632 0.24333592 1.0701073 -1.2653761
000020 19 d7 20 3f d1 d7 4a bf cc 4b 5b 3f ff 3c f0 bf
       0.6282821 -0.7923556 0.8566253 -1.8768615
000030 be ce 4d bd 6d 45 00 be 96 08 17 bf bf 2d 95 bf
       -0.050245993 -0.12526484 -0.58997476 -1.1654586
000040 c7 f2 05 40 a1 ed 4a bf fe a3 40 40 3d a7 1a c0
       2.092943 -0.7926884 3.0100093 -2.4164574
000050 08 6e a1 3f b6 f0 d1 be cf 0f 03 40 7f ca eb 3e
       1.2611704 -0.4100396 2.0478399 0.4605293
000060 5e 92 90 3f ad 45 52 3e c2 0f 14 be 7c a6 a9 bf
       1.1294668 0.20534392 -0.14459136 -1.3253932
000070 6f c1 09 bf 4a f9 bb bf 27 e7 87 3f 93 2b 9c 3f
       -0.5381078 -1.4685452 1.0617417 1.2200798
000080 2b 67 59 3f d5 a1 ed 3e 38 15 9b bf aa 90 a1 bf
       0.84923047 0.4641253 -1.211585 -1.2622273
000090 c2 06 98 3f 7a dc 7f 3f 72 08 e2 3e 6b 80 61 bf
       1.1877062 0.99945796 0.44147068 -0.88086575
0000a0 43 cd 31 be 32 f4 78 3f 01 fa d8 3f ab 76 fc 3f
       -0.17363457 0.9724761 1.6951295 1.9723715
0000b0 d8 d1 0b c0 71 92 df be 37 4f 09 3d 70 f7 73 3e
       -2.1846828 -0.43666413 0.03352281 0.23824859
0000c0 9a 9a 01 3f 6d 48 1a bc 6a c2 3e bd 47 62 7a 3f
       0.5062653 -0.009416682 -0.046572126 0.9780621
0000d0 f9 36 ba 3c 83 01 87 3f e0 0d e7 3d 3d 38 b6 3f
       0.022731291 1.0547336 0.11281943 1.4235913
0000e0 fd 1e 14 bf 78 49 d7 bf 57 cc c7 3f 68 ff c5 3f
       -0.57859784 -1.6819296 1.5609235 1.5468569
0000f0 10 1d 2b be e3 2f 18 bf 9b f0 70 bf 7a aa c6 3d
       -0.16710305 -0.5944807 -0.94117135 0.097004846
000100 c8 cb b6 3e 8e 31 96 3f d6 30 d2 3f 0b 2c 36 3f
       0.35702348 1.1733873 1.6421154 0.71160954
000110 fe b2 1e 40 40 45 39 bd 57 be 5c 3f d7 ce a2 bd
       2.4796748 -0.045232058 0.86227936 -0.07949608
000120 20 a4 77 bd 13 cb b7 3e 91 24 b0 3f 75 a6 5c 3e
       -0.060459256 0.3589712 1.3761159 0.21547873
000130 39 64 c9 3e 84 b3 0e c0 58 53 27 bf b4 af 8a bf
       0.39334276 -2.2297068 -0.6536155 -1.083487
000140 8d ce d3 bf 74 9b d8 bf a9 cd c4 3f 6b e3 4f 3e
       -1.6547409 -1.692244 1.5375262 0.20301597
000150 39 22 7b bf 62 5e 94 bf d3 52 28 bf 8d 43 16 3f
       -0.98099095 -1.1591303 -0.6575138 0.58696824
000160 7d b1 03 40 7f 8a 87 bf 8a 97 8d 3e af 37 8e bf
       2.057708 -1.0589141 0.27654678 -1.1110743
000170 98 ab ba bf d6 56 6a 3f 72 df e3 bf db 37 d6 3e
       -1.4583616 0.9153875 -1.7802565 0.4183949
000180 6f e0 9b bf 49 6b 61 3f 78 be 98 3b b2 34 cb bf
       -1.2177867 0.8805433 0.0046613775 -1.5875456
000190 b8 94 02 bf dc 32 05 3e d6 0e 29 3f bf 5b 1e 3f
       -0.51008177 0.13007683 0.6603826 0.61858743
0001a0 ce 0c 8a c0 fe 31 ca bf ed 50 33 3f 9f b6 6c 40
       -4.314063 -1.5796506 0.7004536 3.6986463
0001b0 90 95 cc 3e 0a 1a 9f 3f 5a e6 69 3e b0 a4 82 c0
       0.39957857 1.2429821 0.22841778 -4.0826035
0001c0 a2 21 fc bf ea 13 68 3f d8 7a 72 be f5 0d f4 3f
       -1.9697764 0.90655386 -0.23679674 1.9066759
0001d0 9f 5c a8 3f 9e 11 05 40 2a ef 89 c0 9a 8a 1a 3e
       1.3153266 2.0792003 -4.310445 0.15091935
0001e0 a0 9c 25 c0 11 55 25 bf 11 9e 14 40 b4 4d ff 3f
       -2.5876846 -0.64582926 2.3221476 1.9945588
0001f0 d7 5d ad be e5 f1 9b be 4f 3a bc bf 45 bc 28 40
       -0.33860657 -0.30457988 -1.4705294 2.636491
000200 e3 7c 75 c0 76 bc 98 be 57 fc 65 bf 75 96 83 3f
       -3.8357475 -0.29831284 -0.89838165 1.0280291
000210 24 81 49 40 31 ff 89 3f a9 52 d1 bf 6e b1 a2 3f
       3.148507 1.0781003 -1.6353351 1.2710397
000220 9a d9 44 bf d0 ab 13 be 6b d6 a7 bf e3 23 3f bf
       -0.76894534 -0.1442101 -1.311231 -0.74664134
000230 73 6f a0 bf 1a b7 55 c0 90 d1 82 3e 07 08 0b 40
       -1.2534012 -3.3393006 0.25550508 2.172365
000240 de 35 25 bf 39 66 d8 be f5 bf 40 c0 a8 31 11 c0
       -0.6453532 -0.4226549 -3.0117161 -2.2686558
000250 34 96 40 3f 69 da d6 3f b5 68 50 bf 5b d0 9f be
       0.7522919 1.6785403 -0.8140977 -0.3121365
000260 d1 3e 8b bf 90 ac 07 40 52 9d 76 3f 28 07 21 bf
       -1.0878545 2.1199074 0.963338 -0.62901545
000270 68 ef 7e 3f e9 9f d2 bf f0 ba c5 bf a8 54 b4 3f
       0.99584055 -1.6455051 -1.5447674 1.4088335
000280 27 71 47 3f be f6 21 be b0 8f 0e be a9 c1 f7 be
       0.7790703 -0.15816781 -0.13922 -0.48389938
000290 95 5d 5a c0 9c aa 33 bf b0 51 a0 be 37 b3 02 40
       -3.4119618 -0.70182204 -0.31312323 2.0421884
0002a0 98 6b 51 3e 18 b2 9b be 24 76 18 bf 40 b7 2b c0
       0.204512 -0.30409312 -0.5955527 -2.6830597
0002b0 bd 55 c9 bf 5b a1 8f 3f 8d 76 cb 3f be 69 f9 3f
       -1.572929 1.1221117 1.5895554 1.9485395
0002c0 c2 83 6f be 1a 1f 89 bf a9 d6 df bf 4c 35 55 3e
       -0.23390105 -1.0712616 -1.7487384 0.20821112
0002d0 33 5f 6c 3f db 6f c3 3f 1a e3 1d 3f 14 bd 30 bf
       0.9233276 1.526851 0.61674654 -0.6903851
0002e0 d5 da 05 be b0 b7 76 bf 94 02 9b bf 28 61 3a c0
       -0.13071759 -0.96374035 -1.2110162 -2.91218
0002f0 04 2b 1d 40 6c ee 52 40 ee ba 2e 3f 66 20 e0 be
       2.4557505 3.295802 0.6825398 -0.43774718
000300 79 d2 83 bf 29 74 06 c0 89 11 85 be 05 68 99 3f
       -1.0298606 -2.1008399 -0.2598994 1.1984869
000310 6f 2e ea bd d8 d6 39 c0 96 69 bf be 93 23 e5 be
       -0.11434638 -2.903738 -0.37385243 -0.44753703
000320 3b 90 bc be b9 02 ef bf d7 d6 db be a9 5c b5 bf
       -0.3682879 -1.8672706 -0.42937347 -1.4168903
000330 46 87 1b bf 9a d8 a8 bf b2 89 38 bf 4f a4 01 bf
       -0.60753286 -1.3191102 -0.72085106 -0.5064134
000340 26 1e 41 3e 86 77 aa bf 17 78 cf 3f 50 14 08 be
       0.18859157 -1.3317726 1.6208524 -0.13288999
000350 c6 43 5a 3f 2f a5 76 be a1 f9 1b 3f a6 3e e4 be
       0.85259664 -0.2408645 0.6092778 -0.44579047
000360 71 aa 26 bf c9 16 88 be d5 fe 9b 3f 6d 35 b3 bd
       -0.6510382 -0.26579884 1.2187144 -0.087504245
000370 f6 f3 2f 3f 5b 26 73 bf 70 da 9b 3f 4e 29 ca bf
       0.6873163 -0.949804 1.2176037 -1.5793855
000380 cd 91 4e 3e 87 e9 7b 3e 74 90 16 bf ab 90 cb be
       0.20172806 0.24600802 -0.5881417 -0.3975881
000390 cd 2e f8 3e bb 0c 96 bf 7a db b1 bf 8a d6 c2 3e
       0.48473206 -1.1722635 -1.3895104 0.38054305
0003a0 fd b4 b4 3e a2 7d 37 3e 5a 62 1a be 5b 5b 81 be
       0.35294333 0.17919019 -0.1507658 -0.2526501
0003b0 0c 14 2d bf 66 3d 6c bf 88 2f ce 3d f9 7a 58 3e
       -0.67608714 -0.92281187 0.100676596 0.2114066
0003c0 b4 b1 e5 bf 66 b1 f1 bd c0 14 4c 3f 6b a3 60 bf
       -1.7944856 -0.11801414 0.7971916 -0.87749356
0003d0 f8 69 b1 bf 0c 3c 10 bf 61 38 84 3f 3f 8e ee 3d
       -1.3860464 -0.56341624 1.0329705 0.11648225
0003e0 cf a4 87 bf 17 8e 45 3c 1b bd e5 be 71 3b 41 3e
       -1.059717 0.012057803 -0.4487084 0.18870331
0003f0 ed 9f 85 3e 98 40 de 3d 80 8a 18 be 45 3d 01 3f
       0.26098576 0.10852164 -0.14896584 0.50484115

input_layer.bias f4 [128]
000000 56 ce 8f bf 9c 86 9d bf 51 73 ad bf 1f 6c 58 bf
       -1.1234844 -1.2306705 -1.3550817 -0.8453998
000010 7d 4b d2 bf 6c 7a 88 bf 5b ad 80 bf e7 ee 6a bf
       -1.6429287 -1.066236 -1.0052904 -0.91770786
000020 b8 db 4c bd 94 98 0a bf 68 f9 8f bf df 42 c4 bf
       -0.050014228 -0.54139066 -1.1247988 -1.5332907
000030 8a 23 da bf 1f 8b 03 c0 45 60 22 bd 28 69 a5 bf
       -1.7042096 -2.0553663 -0.03964259 -1.2922716
000040 fd 8c ea bf 87 5f ce be da 40 69 be bd d4 ab bf
       -1.8324276 -0.40307257 -0.22778645 -1.3424298
000050 86 a9 ea be 8e b6 1e be f6 42 b6 bf 2d 83 7a be
       -0.4583246 -0.15499327 -1.4239185 -0.24464102
000060 79 04 5a bf a1 cd b4 bf 66 37 9a bf 9a 3e a0 bf
       -0.85163075 -1.4125253 -1.2048156 -1.2519104
000070 df b0 8a bf 7e 98 31 bf 32 5c 31 bf 7e a3 3d bf
       -1.0835227 -0.6937331 -0.69281304 -0.74077594
000080 ba 6f 92 bf 9e 91 25 bf bf f3 a4 bf 62 79 2d bf
       -1.1440346 -0.6467532 -1.2886885 -0.6776334
000090 59 96 bc be ce ab 0d bd 4d e1 ba bf 79 ec a7 bf
       -0.36833456 -0.034587674 -1.4600006 -1.3119041
0000a0 1e 61 ba bf 4c e4 ce bf 71 c8 4d bf f1 9f 05 bf
       -1.4560888 -1.6163421 -0.80383974 -0.52197176
0000b0 08 0e f0 be 31 2f ad be b4 b2 96 bf 58 fd be bf
       -0.46885705 -0.33825067 -1.1773286 -1.4921064
0000c0 09 92 16 bf b2 5e 99 bc 2e 35 8c bf e3 f3 b3 bf
       -0.5881658 -0.018721912 -1.0953729 -1.4058803
0000d0 82 57 92 be 01 c8 be bc a3 ab 6f bf 33 2a ba bf
       -0.28582388 -0.023288729 -0.9362127 -1.4544128
0000e0 af da 5a bf b3 ca 0e bd c9 d7 8b bf a0 0d ab bf
       -0.85489935 -0.034861278 -1.0925227 -1.3363533
0000f0 84 38 0f bf 97 0e a0 bf 12 32 ad bf e2 73 f6 bb
       -0.5594561 -1.2504452 -1.3530905 -0.0075211385
000100 49 20 9a be b8 68 7b bf 04 ea a5 bf 68 de 28 bf
       -0.30102757 -0.98206663 -1.2962041 -0.65964365
000110 30 ed a3 bf f6 a9 a3 be 53 7d ba bf 20 d4 7b bf
       -1.2806759 -0.31965607 -1.4569496 -0.9837055
000120 3a 29 19 bf 27 a9 93 bf 3f d4 e0 3c 11 cf 98 be
       -0.5982853 -1.1535996 0.027444957 -0.2984548
000130 9c 10 08 bf aa 9b 1f bf 42 6d c3 bf 10 70 71 be
       -0.53150344 -0.623469 -1.5267718 -0.23577905
000140 fa fd b4 bd 23 d0 ab bf 69 c3 c9 bf a7 15 1a be
       -0.08837505 -1.3422893 -1.576276 -0.15047322
000150 de ce 21 be bf e9 6a bf 9f 5d b7 bf de 2a 46 bf
       -0.1580157 -0.9176292 -1.4325446 -0.7740916
000160 0a 7c 9f bd e8 8d c8 be 28 a2 a5 bf 77 1a a8 be
       -0.077873304 -0.39170766 -1.2940111 -0.3283269
000170 b2 03 80 bf be 12 a6 bc 1f c0 93 bf 1c 54 a2 be
       -1.0001128 -0.020272609 -1.1543006 -0.31704795
000180 fe 37 7c bf 85 57 6f bf b7 23 06 bd 02 f5 6a bc
       -0.9852294 -0.9349292 -0.032748904 -0.014340641
000190 da 15 ad be b9 2e 18 bf c5 c0 a0 bd 9f f7 3e bf
       -0.33805734 -0.59446293 -0.07849268 -0.7459659
0001a0 28 02 1e bc 2d 05 a2 bf 8c d4 4e be 06 73 2e bf
       -0.009644069 -1.265783 -0.20198268 -0.6814426
0001b0 7e 25 59 bf a5 c0 a3 bf f3 0f 14 bf f8 c7 6a bf
       -0.84822834 -1.2793165 -0.57836837 -0.9171138
0001c0 41 89 39 be 36 39 ae bf bb 57 36 bf 8a 1a c8 bf
       -0.18118764 -1.3611209 -0.71227616 -1.5633099
0001d0 c4 2d aa bd 0a 34 b8 be e4 ed f4 be af 57 a8 bf
       -0.0830951 -0.35977203 -0.47837746 -1.3151759
0001e0 be 20 1a bf a6 79 8e bf 79 44 55 bf e9 a9 ad be
       -0.6020621 -1.1130874 -0.83307606 -0.33918694
0001f0 f6 df b2 bf 77 e9 57 be c0 a8 48 bf ff 91 26 be
       -1.3974597 -0.21085154 -0.7838249 -0.1626663

hidden1.weight f4 [64, 128]
000000 8f ea f3 3d 57 3e ce 3e 5c d0 d8 3e 0f 5e 7b 3e
       0.11909973 0.40281937 0.42346466 0.245476
000010 7a d7 89 3f e8 ce 7b bc 98 58 d4 be 05 90 2f be
       1.0768883 -0.0153691545 -0.41473842 -0.17144783
000020 39 16 a0 3f 73 c1 0e bf 3c 8f 3d 3e 7e b0 8a 3f
       1.2506782 -0.5576393 0.18511671 1.0835111
000030 ea 2d e9 be 42 7b 11 bf 91 4e fa be 81 62 1d 3b
       -0.45542842 -0.568287 -0.48888066 0.0024015012
000040 da 9a 24 bf 42 4b 71 3f 91 fb 00 40 49 37 b2 be
       -0.64298785 0.9425546 2.0153544 -0.34807804
000050 1f cc 25 3f 62 8c 32 be 0e 5c 97 3e 43 4c 9c 3e
       0.6476459 -0.17436364 0.2956242 0.30526933
000060 e5 fc e9 3e 9a b4 e8 bd 3c 84 fd 3e 4c 8c 8e 3f
       0.45700756 -0.11362572 0.4951495 1.1136565
000070 66 58 f1 bd 57 7f ff bd 29 80 f4 3f 06 2e cd be
       -0.11784439 -0.1247546 1.9101611 -0.40074176
000080 9c ff 53 be aa 4c 2f be c5 70 59 be 1c c7 1e bf
       -0.20702976 -0.17119089 -0.21234424 -0.62022567
000090 cf 66 1d bf ad 52 79 bf e7 0f 90 bf 25 89 37 bf
       -0.61485 -0.9739178 -1.1254853 -0.7169364
0000a0 7a 0c 13 be 65 8f 8c be 87 74 e5 bd 1d 2a e9 3e
       -0.14360228 -0.2745315 -0.112038665 0.45539942
0000b0 b5 0e 30 3f 98 29 3b bf 6e e7 25 bf 7f 69 8d bf
       0.6877244 -0.7311034 -0.6480626 -1.104782
0000c0 db 3d d1 bd 39 08 1f bf c2 c1 24 bf c1 28 bc 3d
       -0.10216876 -0.6212192 -0.6435815 0.09187461
0000d0 89 29 8b bf 63 da 00 3e ec e5 5c 3f df ba 3d 3f
       -1.087205 0.12583308 0.8628833 0.7411327
0000e0 0c 2b 79 3e ec 0e 98 bf e3 7e 88 bf 4a e3 e7 3e
       0.24332827 -1.1879554 -1.0663723 0.45290595
0000f0 9e 3a f3 3e de 2e 14 3f c5 ca 69 3e 90 db bc bf
       0.4750566 0.57884014 0.22831257 -1.4754505
000100 ed b4 9c ba b9 0f 4a 3f b1 f9 61 3e d7 31 58 3f
       -0.0011955776 0.7893024 0.22067906 0.8445105
000110 4d 07 45 3e 3e f9 44 3e 95 7c 2f bf f0 61 0e 3e
       0.19241066 0.19235703 -0.6854947 0.13904548
000120 c4 9a 84 3f 08 8a d2 3e 92 ec 3c 3e ef 46 1a bf
       1.0359731 0.41120934 0.1844962 -0.60264486
000130 0d 71 c2 3d 17 32 b7 bf 86 8a 9b bf 88 58 90 3e
       0.09494219 -1.4312161 -1.2151649 0.28192544
000140 f6 55 27 bf 0f 59 b1 3e f9 ee 9d 3f 08 a2 b3 3e
       -0.6536554 0.3463826 1.2338554 0.35084558
000150 c0 76 9c bf e0 0b 2b be e9 ab 0d 3f 1b 17 83 be
       -1.222374 -0.16703749 0.5534044 -0.25603566
000160 64 6a 09 bf 21 c7 53 3d 68 7f 63 be 9a 45 d0 3e
       -0.53677964 0.051703576 -0.2221657 0.40678102
000170 21 c4 cc 3e bd 00 d9 3c 8f 26 98 3e fb 63 d3 be
       0.39993384 0.02648961 0.29716918 -0.41287217
000180 ff 89 2f 3f 39 be c6 3e de e9 39 bf 5a 83 7c bf
       0.6856994 0.38817003 -0.7262248 -0.98637927
000190 ed e8 39 bf fc 78 c5 be 5d 5a 9e bf 64 07 35 be
       -0.7262104 -0.38568866 -1.2371327 -0.176786
0001a0 32 f8 ba be ac 94 23 be 4e d0 25 be 35 33 91 be
       -0.36517483 -0.15974683 -0.16192743 -0.2835938
0001b0 8e 03 a7 3d c7 6d 55 3e 9f 5c 2f 3e e3 a5 62 bf
       0.08154975 0.20842658 0.17125176 -0.88534373
0001c0 41 bc 83 3d 00 a7 8b 3f e8 cd 81 bf 03 b3 87 be
       0.06432391 1.0910339 -1.0140963 -0.26503763
0001d0 ca 77 dd bf c4 bb 10 bf 51 bf 1b 3f 0e 29 64 be
       -1.7302182 -0.5653651 0.608388 -0.22281286
0001e0 ad 10 74 bf ec 47 bc 3f 47 1a bc 3f 9d 46 1a bf
       -0.95337945 1.4709449 1.4695519 -0.60264
0001f0 af 09 56 3f 12 31 e7 be 40 a2 37 3f 0f 68 17 bf
       0.83608526 -0.45154625 0.7173195 -0.59143156
000200 0d 78 ee bd e6 1b 07 be ff ec ea bd 5a 0a ee bd
       -0.116439916 -0.13194236 -0.11470985 -0.11623068
000210 89 34 03 3d 08 ee d7 bc 4c db 8b bd 31 65 06 bd
       0.032032523 -0.02635862 -0.06828937 -0.032811347
000220 f0 32 fb 3b 88 74 d4 bd 9b 15 d0 bd 18 22 d7 3c
       0.0076659843 -0.10373789 -0.10160371 0.026261374
000230 83 ec bc bb 14 ee 9f bd 94 6e 6b bd a4 c3 c7 bd
       -0.005765499 -0.07809082 -0.057478502 -0.09754112
000240 e0 16 92 bd 1c da d5 39 15 b5 5a 3d a9 bb ee bd
       -0.07133269 0.0004078903 0.05339535 -0.11656887
000250 61 2c f6 bd 67 97 90 3d 2f 91 ad bd 60 c4 56 bb
       -0.12020183 0.07060128 -0.08474957 -0.0032770857
000260 56 59 05 be 31 99 d4 bd b7 fe 08 be 94 89 d3 3c
       -0.1302236 -0.103807814 -0.13378416 0.025822438
000270 9f 1f 53 bd ab 20 33 be da 4e 17 3d 32 45 92 bd
       -0.051543828 -0.1749293 0.036940433 -0.07142104
000280 1d 27 8f bd c4 d0 05 be be dc f8 bd 90 2b 91 bc
       -0.06989882 -0.13067919 -0.12151478 -0.017720968
000290 6f 9b 1c be c5 94 62 3b 2a 30 67 bd e9 15 d6 bd
       -0.15293668 0.0034573537 -0.056442417 -0.10453398
0002a0 ae b8 97 bd 85 a0 27 be b7 36 20 be 89 01 93 3d
       -0.07408272 -0.16369827 -0.15645872 0.07178027
0002b0 5e e8 ac bb b1 8b a7 3d f5 fb 5b bd 78 42 05 be
       -0.0052767238 0.08180941 -0.05370708 -0.13013637
0002c0 6e cb 37 3d d8 3e e8 3c b0 4e b4 bd c5 b1 d1 bd
       0.04487174 0.028350279 -0.08804071 -0.10238985
0002d0 ba 80 98 bd cd 45 a6 3b b6 17 01 be 0d a2 8b bd
       -0.07446428 0.005074239 -0.12606701 -0.06818018
0002e0 86 56 f6 bd 90 29 be bd e6 a5 00 be b6 9f 04 be
       -0.12028222 -0.09285271 -0.12563285 -0.1295155
0002f0 0d 76 88 3a 22 b9 f7 bc 05 c5 a0 3d e0 fc d8 bd
       0.0010411158 -0.030239645 0.078500785 -0.10595107
000300 e8 04 0f 3d 3b c6 11 be 09 24 d0 bd 69 7a 94 bd
       0.03491679 -0.14235775 -0.10163123 -0.072499104
000310 4a c6 35 be 56 86 ec bc 60 04 c6 bb e2 50 af bd
       -0.17751423 -0.02887265 -0.006043002 -0.08560349
000320 fa f1 65 bd 06 98 b9 bc 70 b8 10 bd 9e fe 60 3d
       -0.05613897 -0.022655498 -0.035332143 0.054930322
000330 b7 fa b5 bd 5a d9 1c bd 80 42 ef bd 4e e4 8f bd
       -0.08885711 -0.03829322 -0.11682606 -0.070259675
000340 58 27 7f bd ab 6f 6e bd c2 d2 c0 bd bf b7 05 3c
       -0.06229338 -0.058211964 -0.09415199 0.008161484
000350 07 72 12 be 4f fc 1c be 04 f3 e8 bd 21 4d 8c bd
       -0.1430131 -0.15330623 -0.113744766 -0.06850649
000360 46 30 3f bd c1 6a bc bd e9 b8 d6 bd 3e ef ce bd
       -0.046676897 -0.09200049 -0.104844876 -0.101042256
000370 eb 12 32 bd e7 be 25 bd 1e fb 05 be c7 2f 82 bd
       -0.043475073 -0.04046526 -0.13084075 -0.06356769
000380 8e d0 3f bd 0e f2 db bd 99 ce 5a 3c fc 72 04 be
       -0.046829753 -0.10739528 0.013354921 -0.12934488
000390 11 f6 07 be 80 7e 74 bb 7f eb 0b be 4c 42 cd bd
       -0.1327746 -0.0037306845 -0.13664053 -0.10022411
0003a0 df ef 27 bd 64 18 eb bd 59 75 9d 3b 77 da 26 be
       -0.041000243 -0.114792615 0.0048052487 -0.16294275
0003b0 a1 04 2a 3e 0a 4a 21 bc 3e c8 28 ba a4 ed dc 3c
       0.16603328 -0.009844312 -0.000643853 0.026968785
0003c0 61 2d 04 be b8 e6 75 bc 08 26 51 3d 64 04 73 bd
       -0.12907936 -0.015008621 0.05106166 -0.05933036
0003d0 0d 03 a0 bd 02 41 ba bd 82 83 84 bd 9d d3 07 be
       -0.07813082 -0.090944305 -0.064703956 -0.13264318
0003e0 1f a4 ac 3c e2 f4 18 3d a6 25 f1 bc c8 53 a4 bd
       0.021074353 0.037342913 -0.029436897 -0.080237925
0003f0 f6 21 db bd 0e f5 d3 bd 1b 80 f8 bd c3 ea 42 bd
       -0.10699837 -0.10349475 -0.12133809 -0.047587167

hidden1.bias f4 [64]
000000 c1 18 23 c0 fa 77 e0 bd b0 06 23 be 24 99 d0 3f
       -2.5483859 -0.10960384 -0.1592052 1.6296735
000010 55 54 0f c0 88 8e f2 bd d3 20 1c bd b6 d6 51 bf
       -2.2395222 -0.11843592 -0.03811724 -0.8196825
000020 e5 33 b5 be 8c 22 58 bf 09 a5 a7 c0 4c 4d 0e c0
       -0.35391155 -0.84427714 -5.238896 -2.2234678
000030 2e c0 0f c0 45 fa 17 be 2b 3c 12 c0 6d c4 2c c0
       -2.2461047 -0.14841564 -2.2849224 -2.6994889
000040 04 31 99 3f a8 f7 95 bf 7a d9 41 be d2 8f 8e bf
       1.1968083 -1.1716204 -0.18930617 -1.113764
000050 0f 90 67 be 81 72 a0 3e 3c dd f7 bc 53 a2 45 c0
       -0.22613548 0.3133736 -0.03025686 -3.0880325
000060 c4 7d e4 be 15 c4 f4 bf 3a 3c fd be d5 52 e4 3f
       -0.44627202 -1.912234 -0.49460012 1.7837778
000070 60 a1 0b bf 50 a4 6b be 21 b9 60 bf 0c 21 00 c0
       -0.54543114 -0.23011899 -0.87782484 -2.002017
000080 65 0e ec bf c4 4b 8b bf 89 fd 22 c0 33 dd 99 bf
       -1.8441893 -1.0882497 -2.5467246 -1.202063
000090 2b b7 01 c0 4f e3 2e be a9 98 60 bf 12 7b 9f 3f
       -2.0268047 -0.17078899 -0.8773294 1.2459433
0000a0 d5 b1 2e c0 30 fb d2 be 58 3c 0a c0 c2 de 31 be
       -2.729604 -0.41207266 -2.159933 -0.17370132
0000b0 88 6e 46 be e6 fc 48 c0 03 2b 6b bf bf 7b 09 c0
       -0.19378102 -3.1404357 -0.91862506 -2.1481779
0000c0 94 90 37 bf da ea 31 c0 4c 1a 29 be 1d 32 87 be
       -0.71704984 -2.7799592 -0.16513938 -0.2640542
0000d0 3f 46 8d c0 23 9c 93 bf 83 af d9 bd 79 7e 1b c0
       -4.414825 -1.1532024 -0.10629179 -2.4295943
0000e0 7c 42 72 c0 c8 0a 9d c0 02 22 e3 bf b9 7e 10 bf
       -3.785308 -4.907566 -1.7744753 -0.56443363
0000f0 72 27 24 3e 32 75 3b 3e a1 c2 56 c0 ef fd fc bd
       0.16030672 0.18306425 -3.3556292 -0.123531215

hidden2.weight f4 [8, 64]
000000 b5 6b a9 3e 62 37 05 bd a8 f6 49 be d6 ad 2a 40
       0.33089986 -0.03252352 -0.19722998 2.66686
000010 98 c7 52 3e 74 ef 6f be c1 a3 8a 3d 44 6b 57 be
       0.20583951 -0.23431188 0.06769515 -0.21037012
000020 32 d3 4a 3e 9d 14 b5 be a2 7e 79 bf d9 58 5e 3e
       0.19807127 -0.3536729 -0.9745885 0.2171358
000030 f2 0d 92 3f 55 54 8f 3b a0 7a d2 bc e1 a1 f2 3e
       1.1410506 0.004374067 -0.025693238 0.4738913
000040 7e 07 10 40 f0 43 2e 3f aa bf c6 bd 31 74 8c be
       2.2504573 0.68072414 -0.09704526 -0.27432397
000050 96 40 e8 3d 1f 28 f3 3f 95 e0 59 3e 25 c1 59 bf
       0.11340444 1.8996619 0.21277077 -0.8506034
000060 fc 96 95 3e 38 70 99 3e a7 26 ec 3f 85 53 4c 3f
       0.29216754 0.2996843 1.8449296 0.7981494
000070 b4 42 a2 3d 7a 58 82 3d d8 43 45 be 8a 72 99 3f
       0.07922879 0.06364532 -0.19264162 1.198808
000080 58 28 3f bf 98 17 02 3f 94 0a c3 be a9 a9 1d 3e
       -0.74670935 0.5081725 -0.38094008 0.15396751
000090 57 3a 8f bf 76 4d 1c bd a6 2b 77 3e 1c 09 99 3f
       -1.1189679 -0.03815981 0.24137744 1.1955905
0000a0 92 be 1d 40 19 0e 7e 3d f5 71 c1 3f 01 18 ef bd
       2.4647565 0.062025163 1.5112902 -0.116745
0000b0 f4 60 db bd c5 cf c5 bf f8 72 e3 3e f7 e2 b8 3e
       -0.10711852 -1.5454031 0.44423652 0.3611066
0000c0 43 38 7d be 25 34 20 3e f5 dd bf bc 27 65 80 3e
       -0.24728493 0.15644892 -0.023421267 0.25077173
0000d0 d2 26 fd be 9e 48 4b bf 8d e5 fb 3c 6a 18 c4 bf
       -0.4944368 -0.7940768 0.030749107 -1.531995
0000e0 e2 44 0f be 57 40 c6 bf 29 f1 f0 be 0c fb 97 bd
       -0.1399112 -1.5488385 -0.4705899 -0.0742093
0000f0 27 6c 0f 40 62 9d 0a 40 c4 ba b8 bd cd c5 0a bd
       2.240976 2.165856 -0.09019998 -0.033880044
000100 8d 0a f5 3c 4c 40 c8 bd d8 59 c7 3d e1 15 bc bd
       0.029912258 -0.09777889 0.09733933 -0.091838606
000110 f2 b1 c9 be 8f 79 88 3e d1 c6 c8 bd 25 3e 2a 3e
       -0.39393574 0.26655242 -0.09803546 0.16625269
000120 86 57 5d be e6 14 3b 3f 1a 68 b1 bf fd be ed 3f
       -0.21615419 0.73078763 -1.3859894 1.857391
000130 d8 c6 ed 3d 14 fd 2c 3d 0b 25 28 3c a8 24 ae 3e
       0.11610192 0.04223354 0.010262738 0.34012341
000140 03 74 06 be 51 4f 4f bf ce c5 b0 bd 70 0e 12 bf
       -0.13130192 -0.809804 -0.08631478 -0.5705328
000150 51 50 1c bc bd 79 25 be ae 1f 73 be 42 4b 3a bf
       -0.009540633 -0.1615972 -0.23742554 -0.72771084
000160 29 a8 84 bc 60 b6 fd bf a6 19 33 bf 8f 84 23 40
       -0.016193466 -1.9821281 -0.6996101 2.5549657
000170 a6 af 84 be c3 cf 77 3e 94 e0 b8 3d b9 94 22 c0
       -0.2591526 0.24200349 0.0902721 -2.5403273
000180 0c 7a 39 3f fe 5a 72 bf 53 1c 8f bf f5 a0 30 3e
       0.72451854 -0.94670093 -1.1180519 0.172489
000190 61 23 fe be 65 5f 89 bd af f8 1e be 65 e1 06 40
       -0.49636367 -0.06707648 -0.15524553 2.107507
0001a0 a3 3d 5e c0 df eb d2 3d 32 1b af bd 66 7d 50 3c
       -3.472512 0.10298895 -0.08550109 0.01272521
0001b0 9c 10 88 3d 0f c7 4c bf 0a 74 4f 3e 70 60 a6 3f
       0.06643793 -0.7999124 0.20259109 1.299818
0001c0 d9 16 0d bf 7d 2c cf be 2e 93 94 3d bc b2 f5 bf
       -0.5511299 -0.4046363 0.07254635 -1.919517
0001d0 5f 08 a3 bf 73 1a 1c be 7d a5 40 3d a3 83 df 3e
       -1.273693 -0.15244465 0.047032822 0.43655118
0001e0 9f 1b fd 3e 6b 48 20 c0 14 43 41 be 2e bd 94 3e
       0.49435136 -2.50442 -0.18873245 0.29050583
0001f0 28 25 01 40 c0 34 05 40 e4 95 8b 3d 97 68 e6 bd
       2.0178928 2.0813446 0.06815699 -0.11250418
000200 65 cb 64 bd 00 38 a7 3c 24 5c ef bd 80 78 9d bd
       -0.055858035 0.020412445 -0.11687496 -0.07688999
000210 a3 1e c0 be e8 7a 70 bd d3 64 0a bd 76 7b f0 3d
       -0.37523374 -0.058710963 -0.03378756 0.11742298
000220 66 29 ec 3d 70 5b 71 bd 4b bc 9e be 52 d3 cb bd
       0.115313336 -0.058925092 -0.3100303 -0.099524155
000230 18 15 70 3d cc 9b 17 bd 9a bf b7 bd 66 4d 9e 3d
       0.058613867 -0.037013814 -0.08972092 0.07729606
000240 d5 6f 98 bc 68 00 c8 bc e8 da 8b bd 7c ac ba 3d
       -0.018608013 -0.024414256 -0.068288624 0.0911493
000250 3e f3 f3 3d bc 03 6b bb 1e 19 07 be 4e f5 d9 be
       0.11911629 -0.003586038 -0.13193175 -0.42569965
000260 16 c0 f3 3d e8 e2 72 bd 9b 4f 89 bd 5e 35 fc bd
       0.11901872 -0.059298426 -0.06704637 -0.123148665
000270 80 49 32 bb 22 c3 a0 bd 00 05 ea 3d 21 01 c8 be
       -0.0027204454 -0.07849719 0.11426735 -0.3906336
000280 98 8a ca bd 8c 59 a9 3d 60 a0 92 bc c2 ac e3 bd
       -0.09889716 0.08269033 -0.017898738 -0.11116935
000290 b0 f4 22 bc 08 62 b3 bd 34 df f8 3d d6 db c4 bc
       -0.009946033 -0.08758932 0.121519476 -0.024030607
0002a0 c4 6b 2e 3d 28 ae f3 bc 65 89 10 3d 72 12 a5 3d
       0.042583242 -0.02974613 0.03528728 0.08060159
0002b0 c0 8a 51 3b 80 eb ac bd f2 71 f1 3d 7a a5 26 3d
       0.003197357 -0.084433556 0.117893115 0.040685154
0002c0 56 fa 9d 3d 00 b8 8e ba c8 9d ee 3d 98 e2 f5 bc
       0.077137634 -0.0010888577 0.11651188 -0.030015275
0002d0 dc fb e2 be 3d 04 69 be 40 d0 11 be 1a c7 cd be
       -0.44332778 -0.22755523 -0.14239597 -0.40190965
0002e0 00 89 a1 bd 08 3a 77 be 8c b0 b3 bd 4e 8e be 3d
       -0.07887459 -0.24143231 -0.08773908 0.09304486
0002f0 ba fe 0c be 38 b2 ac bc 82 3d de 3d 4c 35 d4 bd
       -0.13769045 -0.021081075 0.108515754 -0.10361728
000300 00 a1 56 be d0 2d 3a 3d 46 53 e6 3d b7 9e 1e be
       -0.20959854 0.045453846 0.11246352 -0.15490232
000310 dc ef 38 3d 3e a6 d6 bd 42 52 95 bd 30 df e0 3d
       0.045150623 -0.10480927 -0.0729108 0.1098007
000320 40 aa 58 bb 60 20 3d bc 58 ba cc be 28 9b fa bd
       -0.0033060461 -0.011543363 -0.3998592 -0.12236625
000330 87 a8 f8 bc 62 82 c8 bd c8 ef fe 3d 99 0e 05 be
       -0.030353798 -0.097904935 0.124480784 -0.1299385
000340 18 73 b2 bc 38 3e fc bc 2e f1 87 3d 5c 45 e5 bd
       -0.021783397 -0.030791387 0.06637798 -0.1119487
000350 6c f8 0f 3d a0 52 b8 3b f4 49 d5 bd 84 0b e7 bd
       0.035149023 0.005625084 -0.10414496 -0.11281493
000360 03 d6 f2 bd 00 9b 2a 3c b1 4b 0d be ce 11 ac bd
       -0.11857226 0.010412931 -0.13798405 -0.084018335
000370 7c 07 09 3d 4e 7d fe bd f0 bb 6b bc eb e5 58 be
       0.033454403 -0.12426244 -0.0143880695 -0.21181457
000380 10 31 24 bd 5e f3 97 be 76 96 c0 3d 72 b6 83 3d
       -0.040085852 -0.29677862 0.09403698 0.06431283
000390 a0 fc aa bb d8 3c d0 bd 77 0a 4e be 0c c3 e0 bd
       -0.0052181035 -0.10167855 -0.2012118 -0.10974702
0003a0 78 76 4a 3c 04 77 cd bd 9a 47 6e bd 90 03 31 bd
       0.012357347 -0.10032466 -0.058173753 -0.043216288
0003b0 8e 52 a3 3d 7e a5 9c bd 50 b4 f2 3c 41 67 85 bc
       0.079747304 -0.07648753 0.029626995 -0.016284587
0003c0 aa 35 6e bc 84 cc de 3d 18 d1 14 bd 6e e2 d8 be
       -0.014539162 0.10878852 -0.03633222 -0.42360252
0003d0 01 bb de be a6 23 19 be d0 50 a2 bc c0 7c b0 bd
       -0.43502048 -0.14955005 -0.019813925 -0.08617544
0003e0 88 f5 f6 bd 6a 1d 9d be cd 85 13 bd a3 dc 96 3c
       -0.1205855 -0.30686504 -0.036016274 0.018415755
0003f0 26 5b 57 be 99 b0 2d 3c 23 d5 62 be 38 be 56 3d
       -0.21030864 0.010601186 -0.22151618 0.0524275

hidden2.bias f4 [8]
000000 32 81 15 40 58 a6 34 40 68 2d c1 be 5e b8 cf be
       2.3360105 2.8226528 -0.37729955 -0.40570349
000010 a1 2e 9c be 37 2e b8 be 01 e5 a5 be a4 e1 1e bd
       -0.30504325 -0.3597276 -0.3240128 -0.038789406

output.weight f4 [1, 8]
000000 80 5e f2 bb d1 a0 94 3e c0 78 d7 bc 70 2c 27 bd
       -0.007396519 0.29028943 -0.026302695 -0.040813863
000010 04 11 e7 bd 50 de 40 3d 6b a5 a9 3e 16 07 4b 3e
       -0.11282542 0.047087014 0.33134016 0.19826922
