models/mode_dnn_test.pt (torch, 346056 bytes, 7 tensors)

input_layer.weight f4 [128, 600]
00000000: 0cab d4be 1aa0 99be e40a f6be dbb5 903f
00000010: 91fb 95be 13c8 733e b5af 9abf 7277 b63f
00000020: 72da 8dbe a501 a03e 2ad7 0abf a780 2a3e
00000030: 8eff 3fbf 4257 203e de74 45bf 1311 a2bc
00000040: 4703 8f3f 1cb1 b1bf 858c d13e 39d2 933f
00000050: d7db df3e 97ee 8cbe ccd9 253f 539f 433e
00000060: 7351 1fbf eb3c b0bf 128a c2be 3c32 303d
00000070: 96f2 32bf 0c97 25be 40f3 a7be 080f 6d3f
00000080: da25 4ebd fbda b9bd 1dd5 6dbf 0b36 c63d
00000090: 8a9e c0be 94f6 313e ff3d 46bf f2cc 493f
000000a0: cdfd 36bf 9a55 9d3f 37fa d63d 9713 9c3f
000000b0: d9e2 e9bf 87dc 98bd e202 e4bc 2b98 f8be
000000c0: b585 1fbe e169 78be 419f 843e 3bf9 513f
000000d0: 7084 81be da1f 833e dd8c 3dbf 9e59 583c
000000e0: 287f 5fbe 4737 dcbd e5f0 7ebe 4e6d d03e
000000f0: a347 da3e 03a9 ef3e 7da0 113f a5b6 a6be
00000100: d82e 4abf 976b 25bf a4a8 343f 0680 60be
00000110: 20af a4bd 6151 173f bee8 75bf 4c65 9bbe
00000120: f96d aebe 8c3e 02bf 411e f43d 32f9 1fb9
00000130: b991 d03d bbab 67be 670f 193f 2338 5fbe
00000140: 8013 63bf 8fcc 65be cd6f 2d3e 4c42 0abe
00000150: f606 11bf 40b5 b5be 32e2 4bbf 6811 3cbe
00000160: 057c cabe 6442 ddbc df4b 91bf 97f9 a43e
00000170: bc88 e03d 4c62 523f 80ba d9be 317b 073d
00000180: 793c 483f 9ba4 f1be 491d 78bd e8a9 883f
00000190: 89a1 c73e a6c9 03bf 683b 9f3f 0a26 3fbe
000001a0: 3825 36bf 70be 0e3f 1a52 b63c 1210 c9bd
000001b0: 04ba 153f 0eb1 91be 3afd 963f d2cf c4bf
000001c0: a867 5fbf a92a 72be 3ec1 9bbd c89d a4be
000001d0: a202 eabe 0e4b ce3f 1311 81be f0c3 e6bc
000001e0: 9e54 e5bd de80 dbbf 4590 973f 8c01 16bd
000001f0: a815 17bf ae3b ce3f 1bbd c7bf b8ae 1ebe
00000200: 7f96 813b 0241 bf3e 508e e43f 4dfb c5bc
00000210: da5b ad3d 89c1 683e c5f2 1b3e 8289 203f
00000220: dcbf bbbf 277f f03e d890 403f 94ba 4d3e
00000230: 08ff 243f d9cd c4bf 59ce abbf 8413 803f
00000240: 1a28 7d3f 89e6 e3be 40e8 1e3f 05f4 2bbf
00000250: 6541 8a3c 53ef 52bf 385d dabe a65a 07be
00000260: 0caa 1b3f 1e3b 09bf 1299 59be 38a7 6a3d
00000270: 5fcb 563e 334a 03bf 552e 013d c23e fc3e
00000280: 62f1 d7be debe 38bf d39e 88be 84f4 033f
00000290: 90b8 4f3f dd38 10bf 3687 923e 4a20 913f
000002a0: 1c80 b93e 5815 89be 0142 aebe 7ca1 d13e
000002b0: fc26 2dbf c156 0bbf 9f0e 2cbf 8008 b63f
000002c0: 87d3 873d a745 303c c088 25bf a8e1 93be
000002d0: b57a 8ebf 9255 3fbe 508d 4e3f 3d8c 33bf
000002e0: f3cd 92bf 4ca5 093f 64d0 b53e bc12 dcbf
000002f0: cd42 02bf f2c3 d23e 6852 d13e be28 8abe
00000300: c005 613e 3a6d 07bf 2282 293f 9f6e 9bbf
00000310: 47cb b1be 5b88 82bf 966a 15be 8ef0 0a3e
00000320: b80e e23e 78dc e53e 45ed 5fbf f743 b53d
00000330: 473c 72be 2e82 3b3e 771d 92bf 1105 09bd
00000340: 3945 8ebe 892b 34bf 48f8 a13f 4c24 0f3f
00000350: 84d9 163f f1d7 313c 5664 edbe 4f6c ee3e
00000360: 2b8a 213f a26f dabe 10de 33bf 1d8e 2bbf
00000370: 673d 9ebf a644 2bbf 2417 3dbf 253b 8bbe
00000380: 99fc 83bf c5da 77be 91e8 59bf 6860 0f3f
00000390: 6ae4 54bf 3e1f ac3e 3708 d6be 79dc a8be
000003a0: ca02 c8be f0ba 2c3e 739b 07be bb69 123d
000003b0: 583c b5bf c3ad 0ebe 3d9c b5be d9b9 ce3e
000003c0: ad95 70bf c870 34be 60bf b6bf 11f7 a3bf
000003d0: 32ed 0a3e 4bba bfbd f2fc fb3d 0d3f c9be
000003e0: 6f35 313f 4f3d 2fbf 97b2 b6be 5bb2 f6be
000003f0: 72d0 72be d4d8 b0bf 2e17 673e c548 85be
-0.41536748 -0.3000496 -0.48055184 1.1305498 -0.29293492 0.23806791 -1.2084872 1.4255202
-0.27705723 0.31251255 -0.54234564 0.1665064 -0.7499932 0.15658286 -0.7713145 -0.019783532
1.1172875 -1.3882174 0.4092752 1.154853 0.43722412 -0.2752578 0.64785457 0.19103746
-0.62233657 -1.3768591 -0.37995964 0.043016657 -0.69901407 -0.16170901 -0.32802773 0.9260106
-0.050329067 -0.0907497 -0.9290331 0.09678277 -0.37620956 0.17379218 -0.7743835 0.78828347
-0.7148102 1.2291749 0.104969434 1.2193478 -1.8272353 -0.07463937 -0.027833406 -0.48553595
-0.15578349 -0.2425914 0.2590275 0.8202092 -0.25296354 0.25610238 -0.74043065 0.01320496
-0.2182585 -0.10752731 -0.24896581 0.40708393 0.4263278 0.46808633 0.5688551 -0.32561222
-0.7897773 -0.64617294 0.70569825 -0.21923837 -0.08041215 0.5910855 -0.9605826 -0.3035072
-0.34068277 -0.5087669 0.11919833 -0.00015256254 0.101840444 -0.22624104 0.5978913 -0.21798758
-0.8870163 -0.22441314 0.1693718 -0.13501853 -0.56651247 -0.35489845 -0.7964202 -0.18366015
-0.39547744 -0.027009197 -1.1351279 0.32221672 0.1096358 0.8218124 -0.425251 0.03307647
0.78217274 -0.47195897 -0.060574804 1.0676851 0.3899043 -0.51479566 1.2440004 -0.18666855
-0.7115054 0.55759335 0.022255946 -0.09817518 0.5848696 -0.28455395 1.1796029 -1.5375922
-0.8726754 -0.23649086 -0.076052174 -0.32151628 -0.45705134 1.6116655 -0.2520834 -0.028169602
-0.1119778 -1.7148702 1.1840903 -0.03662257 -0.5901742 1.6111963 -1.5604585 -0.15496337
0.003954708 0.37354285 1.785593 -0.024167681 0.08464785 0.22730078 0.15229328 0.6270982
-1.4667926 0.4697201 0.75221014 0.20090705 0.64451647 -1.537532 -1.3422347 1.0005956
0.98889315 -0.44511822 0.62073135 -0.6716922 0.016876886 -0.8239643 -0.42649245 -0.13218173
0.60806346 -0.5360583 -0.21249798 0.05728838 0.20976017 -0.51285094 0.031538326 0.4926663
-0.42176348 -0.7216624 -0.26683673 0.51544976 0.81140995 -0.56336766 0.28618783 1.1337979
0.36230552 -0.26774096 -0.34034732 0.40943515 -0.6763761 -0.5442925 -0.6720981 1.4221344
0.066321425 0.010758794 -0.6466179 -0.288831 -1.1131197 -0.18684986 0.80684376 -0.7013586
-1.1469101 0.5376785 0.35510552 -1.7193217 -0.5088318 0.4116512 0.40883183 -0.2698421
0.2197485 -0.5290104 0.6621419 -1.2143134 -0.347254 -1.0197862 -0.1459144 0.13568327
0.44151855 0.44894767 -0.8747142 0.08850854 -0.23655806 0.18311378 -1.1415242 -0.033452097
-0.27787188 -0.7037893 1.2653894 0.5591476 0.5892565 0.010854707 -0.46365613 0.46567008
0.6310145 -0.42663294 -0.70260715 -0.6701372 -1.2362489 -0.66901624 -0.73863435 -0.2719356
-1.0311462 -0.24204548 -0.85120493 0.5600648 -0.8316103 0.33617586 -0.41803142 -0.32980707
-0.39064628 0.16868186 -0.13242893 0.035745364 -1.415904 -0.13933472 -0.35470763 0.40376166
-0.9397839 -0.17621148 -1.4277153 -1.2809774 0.13567045 -0.093617044 0.12304105 -0.39305916
0.6922216 -0.68452924 -0.35683128 -0.4818295 -0.23712328 -1.3816171 0.22567436 -0.2603208

input_layer.bias f4 [128]
00000000: dd72 d7be 4ce0 b5be da58 92bd 369f 18bf
00000010: bdba aabe 1e75 a4bc 679a b1bb 94a6 34bf
00000020: a402 eebe 2daa cebe 5219 e6bd 0e90 2abf
00000030: 0c51 b0be 1649 45bf 4f97 60bf 3e57 09bf
00000040: 45c8 c3be 0836 a4be 6b88 30bf 70aa 27bf
00000050: 499e c5bc 9891 fcbe d002 5fbf 2104 cdbe
00000060: 096e 42bc 49e2 19bb 6547 2ebf ec96 c4be
00000070: 3ad0 69bf 767a 83bf bcde 18be ae1b 01bf
00000080: c6e1 24bc e4a2 6abd 232f 89be 272b 5ebf
00000090: 38f6 2ebf 8be3 a7bc b998 9cbe abbd 8ebe
000000a0: 5c8c 4fbe b3f1 32bf 2b1a 09bf 20bb c9be
000000b0: 6dac 0bbf 01b3 e1be 0b26 35bf 86a0 fcbe
000000c0: 538b 38bf 714d 15bf 9515 a2be 7552 91be
000000d0: db60 b1be 332a 94be 2e23 3cbf 7042 dbbd
000000e0: a0c8 92bf 38a4 f6be f733 b3be f837 9d3a
000000f0: 6594 f3be f05a 85bc f74a 19bd 6fe2 a8be
00000100: 37a6 d1be 84ad 1cbf d896 debe e331 0abf
00000110: 4d8b 00bf 993f aabd 66c4 d3be 10e3 5bbd
00000120: 18d5 8cbe da61 56bf 7026 63bf fb5e e7bc
00000130: 36c4 e5be 0731 0cbf 5b7d 8ebe b41f 8dbe
00000140: 2c4f 74bd 7d77 0ebf 9f01 68be 0b51 3abf
00000150: af1d 3ebe 32e0 e1bc 360b 86bc 3215 38bf
00000160: ffa9 69bb d803 5ebe 6a51 0bbf f3ab dbbd
00000170: f9a9 d2be ae19 05bb 4b7d f4be 199c f4be
00000180: cfae 35bf 08aa aabe c764 6dbe 7ba9 16bf
00000190: 71ee a3be b580 c2be 9339 10bf 92fd 25bf
000001a0: 1cf1 9dbe 0482 0ebf b052 debe ec81 90bf
000001b0: 1e35 6dbf 873b bdbe 5c7d 2cbf 993a 6cbe
000001c0: ac62 4fbe 6e8e cdbe e262 37bf 2a58 85bf
000001d0: 1f36 16bc 228c 44bf 757d 7cbe b2d7 31be
000001e0: ae96 eabe 70dd f0be c3d0 98be 4166 98be
000001f0: ff59 2eba 39e7 f3be aecd 6bbf 841d d9be
-0.4207982 -0.35522687 -0.07145853 -0.59617937 -0.33345595 -0.020075377 -0.0054200175 -0.7056668
-0.4648639 -0.4036421 -0.11235298 -0.6662606 -0.34436834 -0.77064645 -0.8773088 -0.53648746
-0.3823873 -0.32072473 -0.6895816 -0.6549444 -0.024123328 -0.4932983 -0.87113667 -0.40042213
-0.011867055 -0.0023480824 -0.6807769 -0.38396394 -0.91333354 -1.0271747 -0.14928716 -0.5043286
-0.010063594 -0.05728425 -0.26793775 -0.86784595 -0.6834445 -0.020494243 -0.30585268 -0.2787908
-0.20268387 -0.69900054 -0.53555554 -0.39400578 -0.54559976 -0.44081882 -0.70761174 -0.4934122
-0.7208759 -0.5832129 -0.3165709 -0.28383222 -0.34644207 -0.28938445 -0.7349118 -0.10706031
-1.1467476 -0.48172164 -0.35000584 0.0011994829 -0.47574154 -0.016278714 -0.037425008 -0.32985255
-0.40947124 -0.61202264 -0.4347446 -0.5398237 -0.50212556 -0.083129115 -0.41360778 -0.05368334
-0.27506328 -0.8374306 -0.88730526 -0.028243532 -0.4487626 -0.5476231 -0.27830014 -0.2756325
-0.059645817 -0.55651075 -0.22656868 -0.7277991 -0.18566011 -0.027572725 -0.016362768 -0.7190734
-0.0035654304 -0.21681154 -0.54421103 -0.10726156 -0.41145304 -0.0020309496 -0.4775184 -0.47775343
-0.7096986 -0.3333285 -0.23182975 -0.58852357 -0.32017854 -0.3798882 -0.5633785 -0.6484004
-0.30848014 -0.5566714 -0.4342246 -1.1289649 -0.92659175 -0.36959478 -0.67378783 -0.23069228
-0.20252484 -0.40147728 -0.7163526 -1.041753 -0.009168177 -0.76776326 -0.24657233 -0.17367437
-0.45818084 -0.47043943 -0.29846773 -0.29765514 -0.00066509837 -0.47637346 -0.9211072 -0.4240533

hidden1.weight f4 [64, 128]
00000000: 8fa6 49be 4cf9 4cbe 552b 2bbd 98e0 95be
00000010: aaac f23d 8d98 38be 34bf cbbe 65eb cfbc
00000020: 5b28 49bd 4741 53bd c1e9 a9be deb9 80be
00000030: 418d c0bd 586d c3bd c837 a33d da41 78be
00000040: 7761 41be 6b15 f6bd 3553 ef3d 03e4 0b3e
00000050: 7def cabe 483e 1b3f 06b7 76be 8157 07be
00000060: 9fc5 22bf e47c ccbe 1960 ac3d 9b30 1cbe
00000070: 4db4 a33d 8945 02bf 1580 543d db41 a9be
00000080: 5329 b1be 3f5e 0abf 451b d6be dfb1 2fbe
00000090: 587d 0bbd ea0a 00bf c16c 963e fb13 8a3c
000000a0: cb9e 02bd ac7a 74bd ac49 6ebd 363d a3bd
000000b0: 4af3 b8be 3df8 e6be afec 95be 45a3 d93d
000000c0: e368 0dbf 7bf5 d7bd d473 de3e 58dc c4bd
000000d0: 7ec9 31be b909 28be 8388 d1be b5da 16be
000000e0: acaa 4c3e 19ac 233e 231f abbe d486 7ebd
000000f0: 4cd6 71bd ec2f 8abe 8895 f73c 6e8f 8bbe
00000100: f426 813c 7789 22be c369 bcbe 4697 47bd
00000110: 3ef8 05be 27fa 013e 50ed c93c 875e 02be
00000120: 5f1b 71be 86b8 973e 450e f83d 0502 abbe
00000130: abda 59be 3056 f1bd 3282 88be a02f 153e
00000140: f1f0 873e e904 0a3e e8c8 24be abb8 c8bd
00000150: a0ac 1ebf f4c7 b4be a48a c5be 7bfc 233d
00000160: f6b7 12bf 945b 183e 860f c73d 6809 76be
00000170: 5dff 73be fe10 94be 78e8 85be 3282 65bd
00000180: fe2d e73d bf29 12be 7cb4 51be 3e24 47be
00000190: 9eb1 193e 9c1b bcbd 3398 0c3e fabd 26be
000001a0: 9d79 b63d e04f 2b3f 984f 31be 863c 903d
000001b0: a3cc a6bc 0f38 42be a6cb 0bbf 7902 acbe
000001c0: a8d0 78bd 969f bfbd 81f4 ccbe 7e5c c03c
000001d0: 1de0 a43e 0a8b 3d3d b887 fb3c 3a8f dd3e
000001e0: 77b0 63bd 67c7 5cbe c762 78bd 4f95 953e
000001f0: 084f 0d3f 9ed5 f93c 53d8 45be 4d94 ecbe
00000200: 69f4 a8be 3a7c ee3c 9916 7fbe ec76 debd
00000210: 9a2d 213f 451e b03e 130e 8f40 d8d8 af3e
00000220: bcc6 68bd b6e8 9ebd 8dae 4440 cbea 713d
00000230: 6ca6 b83e 8676 39be ec78 5ebd 25af 98bf
00000240: dca9 9b3e 96ee 5f3f 3e78 dfbe 7601 afbb
00000250: e2b5 9640 e453 5040 4adc dabc e465 1a40
00000260: 84ee db3f be6f 84bf df6b 8c3e 679d b83e
00000270: 559d 2a3e 67db f1bd 74b5 e83f 7627 973e
00000280: f464 2bc0 a3b3 f33f 2e11 c5be 83f3 cb3d
00000290: 5201 0bbf 210d 7c3f 5974 703f 516d b13f
000002a0: e838 a03e 4b30 f2be 9ff3 5dbe f749 0c3f
000002b0: 0740 543e 573b 883e 0816 d1bc aa48 df3e
000002c0: c3f2 df3c adfc 2e3e dfc5 ad3f e20b 333f
000002d0: e425 bc3f 9a7e 993f e72f 8bbe 6905 2cbf
000002e0: 4d7f 90bd 57d6 e73e a064 753f a3e5 11be
000002f0: de5a f53d a318 b83f 6e5b 0f3f 1e8e 533f
00000300: 4bcc babe b956 f4bd 9717 15be ab87 413e
00000310: 42b4 63bd 4a55 e53f 7c69 61be 4a61 6a40
00000320: b7a1 023d 7326 39bf 7ea0 d0be 1be5 6b40
00000330: 52b6 da3d f864 b43e 0ae7 b9bd 0cdb 863f
00000340: ad62 193f 2889 51bc 3e45 6940 8c80 76be
00000350: 6d9a 343f 4ca5 8d3f 7504 21bf 8103 43bc
00000360: f71a 3540 a0fe 6d3d 63d9 f13e 2bfa ca3f
00000370: 8c07 b4be 980b 9140 3324 233f aead 00bb
00000380: 253a aabd 6faa bb3e 972e e63e 0f48 cc3e
00000390: 7065 eebe cabb a43f 0abe c03e 1c95 183f
000003a0: 5145 053f cf89 9dbd eadd 3a3f a49f 5b3d
000003b0: 8c45 b03c 3dc9 a73e 9059 9d3c 1060 f7be
000003c0: 6729 6d3f 30d4 2d3e 1cbf de3d 88ee 543e
000003d0: a095 0140 b0fa a93e f330 6b3b 2478 0c40
000003e0: ab26 213f a1e7 1cbf 7ba3 893f b0c9 a3be
000003f0: a857 8b3d f08a 66bf 288d 973d 92ad 723d
-0.19692443 -0.20016974 -0.04178937 -0.29272914 0.11849339 -0.18026944 -0.39794314 -0.0253808
-0.04911075 -0.051575925 -0.33186153 -0.25141805 -0.09401942 -0.0954234 0.07969624 -0.2424387
-0.18884836 -0.12015804 0.11685792 0.13661198 -0.3963584 0.6064191 -0.24093255 -0.13216974
-0.63582796 -0.39939034 0.08416767 -0.15252917 0.07993374 -0.5088735 0.05187996 -0.33058056
-0.3460184 -0.5405006 -0.4181768 -0.17157696 -0.034055084 -0.50016654 0.29379848 0.01685523
-0.031889718 -0.0596873 -0.058175728 -0.079706594 -0.36123115 -0.45111266 -0.29282138 0.10626844
-0.5523817 -0.105448686 0.43447745 -0.0961234 -0.1736202 -0.16409959 -0.40924463 -0.14731868
0.19986981 0.15983619 -0.33422193 -0.0621403 -0.05904226 -0.26989686 0.03022267 -0.27257866
0.015765645 -0.15872751 -0.3679944 -0.04872825 -0.13082978 0.12693082 0.024649292 -0.12731372
-0.23545597 0.29632968 0.12112097 -0.33399978 -0.21274821 -0.11784017 -0.2666183 0.14568949
0.2655101 0.13478436 -0.16092265 -0.098008476 -0.61982155 -0.35308802 -0.38582337 0.040035706
-0.5731195 0.14878684 0.09719758 -0.24027026 -0.23827882 -0.28919214 -0.26153922 -0.056032367
0.11288069 -0.14273737 -0.20479006 -0.19447419 0.15009162 -0.091849536 0.13729934 -0.16283408
0.08909915 0.66918755 -0.17315519 0.07042794 -0.02036125 -0.18966697 -0.5460762 -0.33595636
-0.060745865 -0.093566105 -0.40030292 0.023481604 0.32202235 0.046275176 0.030704364 0.43273336
-0.055588212 -0.21560441 -0.060641076 0.29215476 0.5519872 0.030497368 -0.19320802 -0.46206895
-0.3299897 0.02911197 -0.24910964 -0.10862526 0.6296021 0.34398094 4.470468 0.34345126
-0.056830153 -0.0775923 3.0731537 0.059061807 0.3606447 -0.1811162 -0.05431454 -1.192845
0.3040303 0.8747343 -0.43646425 -0.0053407503 4.7097025 3.2551203 -0.02671637 2.412469
1.7182164 -1.0346601 0.2742605 0.36057588 0.1666158 -0.11809426 1.8180375 0.29522294
-2.6780367 1.9039196 -0.3848967 0.099585555 -0.5429889 0.98457533 0.9392753 1.3861486
0.31293416 -0.4730247 -0.21674965 0.5480036 0.2072755 0.26607773 -0.0255232 0.43610126
0.027337437 0.17088576 1.357601 0.69940007 1.4699063 1.1991761 -0.27184984 -0.67195755
-0.07055531 0.45280716 0.95856667 -0.14247756 0.11980222 1.4382519 0.55998886 0.8263873
-0.36483988 -0.119306035 -0.1455978 0.1889941 -0.05559183 1.7916653 -0.22012895 3.662188
0.031892505 -0.72324294 -0.40747446 3.6858585 0.10679306 0.35233283 -0.0907727 1.0535598
0.5991619 -0.012789048 3.6448512 -0.24072474 0.70548135 1.106607 -0.62897426 -0.011902691
2.8297708 0.058104157 0.47236165 1.5857595 -0.35162008 4.5326653 0.6372711 -0.001963477
-0.083118714 0.36653468 0.4495742 0.39898726 -0.46561766 1.2869809 0.37644988 0.5960252
0.52058893 -0.076923005 0.72994864 0.053619042 0.021517538 0.3277072 0.019207746 -0.48315477
0.926413 0.16975474 0.10876295 0.20794117 2.0247574 0.33199072 0.003588733 2.1948328
0.6294963 -0.6129094 1.0753015 -0.31989813 0.068038285 -0.9005575 0.0739997 0.05924756

hidden1.bias f4 [64]
00000000: e1e3 0bbf fa96 0ebf e2ee 5dbe 5788 afbe
00000010: 3a88 22bf 43f2 38bf 2596 75bf a786 25bf
00000020: d3e7 c6be 75e0 443d d4a8 32be dc20 eabe
00000030: 0bce 27bd d059 f0bd 2386 5dbe 95ab d9be
00000040: 03dd 30be 0a05 40bf 7c60 21be 80c0 2dbe
00000050: 3a9a d6bc 2ae4 c03d de6a 893d 5178 02be
00000060: 5f60 93be 2785 29be 95ed 97be c0fe b9be
00000070: c1fb 54be e62e 42bf 48e5 babf 91d4 6dbe
00000080: 9c59 8bbd 09f3 58bf cbdb febe 4573 e63d
00000090: f03f 733d 3c0f 0fbd 3f73 cabe ccd1 7fbe
000000a0: c2da 16be 4e2e 70bd 57da fb3e 4ddc 76be
000000b0: 6a7d a5bf 6748 bfbe 502a 71bd ddd6 ab3d
000000c0: b814 d03e ffb4 01bf 280e 24bd 5b55 b4bd
000000d0: bc76 8abe 82ed a33d c44f 49bf 9131 39bf
000000e0: 9267 d2be c7ad 16be e8d5 97be c0e9 a0bf
000000f0: 02bd f0be 62a7 fc3d 1f1e a5bf aa21 71bf
-0.5464459 -0.5569912 -0.21673158 -0.34283707 -0.63489115 -0.7224466 -0.9593223 -0.6465859
-0.38848743 0.04806562 -0.17447215 -0.45728195 -0.040967982 -0.117358804 -0.216332 -0.4251372
-0.1727181 -0.7500769 -0.15759462 -0.16967964 -0.026196588 0.09418519 0.067098364 -0.1274121
-0.28784463 -0.165547 -0.29673448 -0.3632717 -0.20799161 -0.7585281 -1.4601221 -0.23225619
-0.06804201 -0.8474584 -0.49777064 0.11252455 0.059387147 -0.034926638 -0.3954105 -0.24982375
-0.14731887 -0.05863791 0.49190018 -0.24107476 -1.2928898 -0.37359926 -0.058878243 0.08390591
0.40640807 -0.50666803 -0.040052563 -0.08805343 -0.27043712 0.080042854 -0.7863734 -0.7234126
-0.41094643 -0.14714728 -0.29655385 -1.2571335 -0.47019202 0.12336613 -1.2899817 -0.9419199

hidden2.weight f4 [8, 64]
00000000: a9e5 3f3e 6998 45bf 6812 2cbe 69fe 473e
00000010: c2f2 9cbe b073 a03f 9344 b6be c723 e8bf
00000020: 142e 65bf f6dc 1abe c077 243d 773c 353f
00000030: 4ea4 b6bc 1c1a 663e d383 1640 7868 583e
00000040: 5954 10be 9c46 ae3e 69d5 b13e 6809 5cbe
00000050: 9e05 623e 923e fa3d ed57 1f3d 3b8a bdbd
00000060: 96fa 0bbe c0ef 033d 89ed 94be 3b62 19be
00000070: 5aaa 7b3d 202c 39bf 6d81 e0be 5158 dc3e
00000080: 93dd 633d 4286 0340 a728 413d 4fa3 d8be
00000090: 5185 80be 6495 29be de59 67bd b8cf 36bd
000000a0: 30dc 233d 4a2e 87bd 136d a23f 38fd 3abe
000000b0: 8a39 96bf f01e 02bd ea17 a13d 6de3 11be
000000c0: 476d b1bd 5650 55bf 97bb 64bf df03 1c3e
000000d0: 8958 cf3c 4a0c b43f e320 15bf 2230 60be
000000e0: 4964 2a40 981a 313f d1bd 0dbe 9762 c6be
000000f0: 04ca 293e 85cf 15be 207d a4bf 6f79 12bf
00000100: 1878 4cbd 63d5 1bbe c8ed 783d 98ad a5bd
00000110: 153d 3dbe 606a f23d bee6 b4be c507 59bd
00000120: 7b31 a4be b0d1 25be c4c8 c4bd 4e0d aabe
00000130: 6949 14be 8880 4abe baed 923e a2e9 1f3e
00000140: 7291 16bf 5e31 253e 5e02 65bd 50bc a43c
00000150: 45a5 1cbe 22ae 51be 948b d2bd 5445 473e
00000160: 17dd 8bbe 9429 a2bd 442e 9a3d f250 7cbe
00000170: 4682 a5be 0014 a7be c0ca c5bc cce7 31bd
00000180: 551b 8fbe a2d9 cebe 68ff dc3d 9a15 c9bd
00000190: 7fab 553c b8ab 123e 36e3 3cbe e0d9 f03d
000001a0: 483c 69be 3063 913e d924 35be 9af6 35be
000001b0: 70a4 30be 30f7 a53c 9a59 8bbd 2776 ac3d
000001c0: 68ee 993c 8c9f 09be 41de 3ebd 125f 4abe
000001d0: 205f afbc 21c5 6fbe 7544 5a3d 23ab 60be
000001e0: f20e 3cbe 5648 b6be f4c6 9fbd e7ab 2e3e
000001f0: 42ab 86be 809d afbe 3df3 9abb 5462 8abe
00000200: 1c6c 1c3f 740d 13bf 299c fabd 6015 ab3e
00000210: 2947 dbbe d1c0 2440 e65a 7cbc b31c 3dbf
00000220: f73e c93e 4ac8 0f3f 4098 02be 01cd 3940
00000230: be31 81be 78ef 11bd a7f6 e53f dead 2b3e
00000240: 119c d83e 896e 7e3d c305 aa3f 589f 663e
00000250: ebb1 20bc 57fd 93bd 1e81 813e 5530 52be
00000260: 10b5 a63c 72e8 823e 12c4 a4bf 93c5 89be
00000270: 481b 2ebf 850f 48bf a5fd 86be 9d77 953f
00000280: 6c05 7b3e b2a3 2b40 1eec 6cbe b144 6e3e
00000290: d596 a7bd 1ada 8bbe 9d2d 163e 214d 9cbd
000002a0: eb94 95bd a850 17be 9418 a7be 2344 13bd
000002b0: 7c16 92be f252 21be da2c f53e f981 9e3e
000002c0: bfc8 c63d 4e5d f83f d5bf 99be 125e 2fbe
000002d0: 5a5a 353e 721d 90bd 95ed 0ebf f063 7d3e
000002e0: cd92 883f 9fe8 8f3f 1cfe 78bd 8c17 74bf
000002f0: 689f a33d d8ad 8ebd bb27 153e a20e 763f
00000300: 9af2 ac3e 57af cfbe 1c6d d73d bc88 ad3d
00000310: 1a92 90be d3e5 de3d 241d dcbe 6390 21be
00000320: f01b 6dbf 9215 883e 00de 6cba b250 afbe
00000330: d2ae 2dbd e576 85be fa94 2ebe c2ed f5bd
00000340: 6187 bc3d 25bd 253d 54ed 2ebf eb9f 11bd
00000350: 3357 82bc dcbe f9be 4320 50be 747e 8bbc
00000360: 8ba4 6f3d 72da 903e a157 00bf 6a64 82bc
00000370: 58e7 6e3e 65b7 fabc b194 6abe dea2 7dbf
00000380: afe2 323e e3c0 3bbe a185 693e 67e9 0d3e
00000390: aff4 6fbe 0ee5 0f3e 1e30 413e d8bc 1b3d
000003a0: 363b a53d a6c5 603e 88d2 83bf 20de 22be
000003b0: df7f 903c 9072 ee3d 9e4c b0be 45b2 4cbf
000003c0: 1e1c dcbd 9c09 0dbf 9528 c0bd c79b b7bd
000003d0: 2585 ec3d 1186 803d 9630 b5be d3f2 223e
000003e0: 4711 9c3d 0226 43bf a643 0fbf c79c 47be
000003f0: 6c2e 2e3e d1d2 86be 2b5d b8be a15a f7be
0.18739952 -0.77185684 -0.16803896 0.19530644 -0.3065396 1.2535305 -0.35599193 -1.8135918
-0.89523435 -0.15123352 0.040153265 0.7079539 -0.022295143 0.22470897 2.351796 0.21133602
-0.14094676 0.34038246 0.34733132 -0.21487963 0.22072455 0.122189656 0.038902212 -0.09254881
-0.1366981 0.032211065 -0.29087475 -0.14978878 0.061441757 -0.72332954 -0.43848744 0.4303613
0.05563123 2.0550694 0.04715791 -0.42312095 -0.25101712 -0.16560894 -0.05648219 -0.04463169
0.04000491 -0.06600626 1.2689537 -0.18260658 -1.173631 -0.031767786 0.07865889 -0.14246912
-0.08663421 -0.8332571 -0.8934874 0.15235852 0.025310772 1.406625 -0.58253306 -0.21893361
2.662371 0.69181204 -0.1384194 -0.38747093 0.16580969 -0.14629944 -1.2850685 -0.5721654
-0.049919218 -0.1521812 0.06077364 -0.08089751 -0.18480332 0.11836696 -0.35332292 -0.052985925
-0.32069 -0.1619327 -0.096086055 -0.33213276 -0.14481129 -0.19775593 0.28696996 0.15616468
-0.5881568 0.16132113 -0.05591046 0.020109326 -0.1529742 -0.20476583 -0.10280529 0.1946004
-0.27317116 -0.07918087 0.07528356 -0.24640253 -0.32325953 -0.32632446 -0.02414453 -0.04343395
-0.2795054 -0.40400416 0.107909024 -0.09818573 0.013041376 0.14323318 -0.18446049 0.11760306
-0.22776902 0.28395987 -0.17689838 -0.17769852 -0.17250228 0.02025947 -0.068041995 0.08420973
0.018790439 -0.13439769 -0.046598677 -0.19762829 -0.021407664 -0.23415042 0.053287942 -0.21940283
-0.18365076 -0.35602063 -0.07801619 0.17057763 -0.26302534 -0.3429985 -0.0047287033 -0.27028143
0.6110246 -0.574424 -0.122368164 0.33414745 -0.42827728 2.5742686 -0.015402531 -0.73871917
0.3930585 0.5616499 -0.12753391 2.9031374 -0.25233263 -0.035628766 1.7965897 0.16765544
0.4230657 0.062117133 1.3283008 0.22521722 -0.009808044 -0.07226055 0.2529382 -0.2052625
0.02035001 0.25567967 -1.2872336 -0.2690855 -0.6801038 -0.7814868 -0.2636539 1.1677128
0.24513787 2.6818662 -0.23136947 0.23268391 -0.08183066 -0.27314836 0.14665838 -0.07631899
-0.073037945 -0.14776862 -0.3263594 -0.035953652 -0.2853278 -0.15754297 0.47885782 0.30958536
0.09706258 1.9403474 -0.3002917 -0.17125729 0.17710248 -0.07036866 -0.5583127 0.24745154
1.06698 1.1242865 -0.060789213 -0.9534843 0.07989389 -0.06966752 0.14565937 0.9611608
0.3377884 -0.4056346 0.10518858 0.08473346 -0.28236467 0.10883679 -0.42990983 -0.15777735
-0.92620754 0.26578957 -0.0009035766 -0.34241253 -0.04240305 -0.26067272 -0.17049018 -0.12008239
0.09205509 0.040463585 -0.68330884 -0.0355529 -0.01591072 -0.48778427 -0.20324807 -0.017028071
0.05850653 0.2829166 -0.5013371 -0.015917022 0.23330438 -0.030605027 -0.22908284 -0.9907664
0.17469285 -0.18335299 0.22804882 0.13858567 -0.23433183 0.14052221 0.18866012 0.038021892
0.08067934 0.21950397 -1.0298624 -0.15905046 0.017639099 0.11642945 -0.34433454 -0.7995952
-0.107475504 -0.5509279 -0.093827404 -0.08965259 0.11548833 0.06275571 -0.3538863 0.15912943
0.07620483 -0.7622987 -0.559626 -0.194934 0.17009896 -0.26332715 -0.36008582 -0.48311332

hidden2.bias f4 [8]
00000000: 261d 8c3e a5bb 06bf 0939 8cbf befe 4abd
00000010: 0716 7bbe c44e eebd 4750 483f 0ae9 b8be
0.27365988 -0.5263007 -1.0954906 -0.049559347 -0.24520122 -0.11636117 0.78247494 -0.36115295

output.weight f4 [1, 8]
00000000: 53f9 07bf f1fd 60be 0d85 d5be 8cc7 2f3e
00000010: 2418 81bc 9161 413e f154 ef3f 6a2c 893d
-0.53114814 -0.21971871 -0.41703072 0.17165965 -0.015758581 0.18884875 1.8697797 0.066979244
