models/model3.pt (torch, 345652 bytes, 7 tensors)

input_layer.weight f4 [128, 600]
0	0xbeb0c659	-0.34526327
1	0x3df2fd6b	0.11864742
2	0x3eb8dbca	0.36105186
3	0x3fa7928c	1.3091598
4	0xbfdbd507	-1.7174386
5	0x3feb5305	1.838471
6	0xbf39888f	-0.72473997
7	0x3f6cfd04	0.9257357
8	0x3e98b6bb	0.29826912
9	0xc00a87ff	-2.1645505
10	0x3f189acb	0.59611195
11	0x3f82d3ec	1.0220923
12	0xbf36db9a	-0.71428835
13	0x3e89e60f	0.26933333
14	0x3e787563	0.2426353
15	0xbffdd1be	-1.9829633
16	0xbbbb4ae3	-0.0057157143
17	0x40321d22	2.7830281
18	0xbe3d5232	-0.18488386
19	0xbf3cbf12	-0.7372905
20	0x3f80a95c	1.0051684
21	0x3f36e46e	0.71442306
22	0xbf31309a	-0.69214785
23	0x3f6480f4	0.89259267
24	0x3f0aedcd	0.54269105
25	0x3eb9e7b3	0.36309585
26	0xbf0b2618	-0.54355
27	0x3f019300	0.5061493
28	0xbf14c16d	-0.58107644
29	0x3f313361	0.69219023
30	0x3d0988cd	0.03357773
31	0x3f7e9357	0.9944357
32	0x3f19586c	0.59900546
33	0x3c1c7522	0.009549411
34	0x3f558766	0.83409727
35	0x4017dd3f	2.3728788
36	0xbf0786ab	-0.5293986
37	0xbfebb447	-1.8414391
38	0xbeb00b9d	-0.3438386
39	0xbfb3f371	-1.4058667
40	0xbf40dc16	-0.75335824
41	0x3f4e529d	0.8059481
42	0xbf4f3f60	-0.8095608
43	0x400359ff	2.052368
44	0x3fa39153	1.2778724
45	0xbf460eab	-0.7736613
46	0x3f630545	0.88679916
47	0x3e4105ed	0.18849917
48	0xbdeaa389	-0.11456973
49	0xbc9d8a35	-0.019230941
50	0x3db3ff64	0.08788946
51	0x3f115126	0.5676445
52	0x3f033ef3	0.5126793
53	0xbf17c319	-0.5928207
54	0xbe23ede5	-0.16008718
55	0x3d1d0273	0.038332414
56	0xbefaba5d	-0.4897031
57	0x3f83b162	1.0288508
58	0xbf9d8156	-1.2305095
59	0x3ffb998f	1.9656237
60	0xbf447340	-0.7673836
61	0x3f4b1eba	0.7934376
62	0x3ee1a586	0.44071597
63	0xb84dae00	-4.903786e-05
64	0xbf9f0954	-1.2424722
65	0x3fa4576c	1.2839179
66	0x3eee80de	0.46582693
67	0x3e86b15e	0.26307195
68	0xbfb6c8ab	-1.4279989
69	0x3fe31813	1.7741722
70	0xbdfc21b9	-0.123111196
71	0x401aa626	2.416391
72	0x3f88109b	1.0630068
73	0xbed5f61e	-0.41789335
74	0xbda8142f	-0.08206975
75	0x3f2d39ae	0.6766614
76	0x3f3defe4	0.7419417
77	0xc01bc2fe	-2.4337764
78	0x3fb4a5cf	1.4113101
79	0x3db8f700	0.090314865
80	0xbf3f15a3	-0.7464239
81	0xbf845820	-1.0339394
82	0x3ebfd266	0.3746521
83	0x3e9de3d4	0.30837882
84	0x3f80aa92	1.0052054
85	0x3fe9cab6	1.8264987
86	0x3fec38f1	1.8454877
87	0xbfc79556	-1.5592449
88	0x3f53d96b	0.8275363
89	0xbf59924f	-0.84988874
90	0x3fb1fafe	1.3904722
91	0xbf5277d4	-0.82214093
92	0xbf34476f	-0.704215
93	0xbe53a19b	-0.20667116
94	0x3e505ae8	0.20347178
95	0xbe70ed9d	-0.23528142
96	0x4008eee7	2.1395814
97	0xbf48815b	-0.7832238
98	0x3f00e1d1	0.5034457
99	0xbf55deed	-0.8354328
100	0x3f6c0400	0.92193604
101	0xc0404918	-3.0044613
102	0xbf95cee5	-1.1703764
103	0x3f05cf6f	0.52269644
104	0x3fb86910	1.4407063
105	0x3f68c77c	0.9092939
106	0xbf367990	-0.7127924
107	0xbf168bc7	-0.58807033
108	0xbffaebcc	-1.960321
109	0xbe491fb0	-0.19640994
110	0x400926af	2.142986
111	0xbeea526a	-0.45766002
112	0xbf7c88ca	-0.98646224
113	0x3fa9739d	1.3238407
114	0xbf2165c5	-0.63045913
115	0x3f30b4e7	0.69026035
116	0x40006235	2.005994
117	0x3f915339	1.1353523
118	0x3f293a05	0.66104156
119	0x3f5520ac	0.8325298
120	0xbf73c298	-0.952188
121	0xbf0ed728	-0.5579705
122	0x3ed188ff	0.40924832
123	0x3ea7aa4c	0.32747114
124	0xbf9ad711	-1.2096883
125	0xbf01368b	-0.5047385
126	0x3f89bfb3	1.0761627
127	0xbeef0000	-0.46679688
128	0x3f39d946	0.7259716
129	0x3f104267	0.5635132
130	0x3e0da270	0.13831496
131	0xbe8bdb0f	-0.27315566
132	0xbf9fe177	-1.2490681
133	0xbfbe57f5	-1.4870592
134	0x3f54253c	0.82869315
135	0xbf9b1c96	-1.2118099
136	0x3f22e6c9	0.636334
137	0x3e5056f0	0.20345664
138	0xc01214e8	-2.282526
139	0x3fdb7392	1.7144644
140	0x3e7cc66b	0.24685065
141	0xbed95c29	-0.42453125
142	0x3f5a95a9	0.85384613
143	0xbcb30d8b	-0.021857044
144	0xbf87c648	-1.0607386
145	0x3f25ec34	0.6481354
146	0xbfa23879	-1.2673484
147	0x3f055215	0.5207837
148	0xbda16d68	-0.07882196
149	0x3d806a2d	0.062702514
150	0xbf95c1dd	-1.1699787
151	0xbe6e7d1c	-0.23289913
152	0xbe7920cb	-0.24328916
153	0x3f8cefac	1.1010642
154	0x3f071557	0.52766937
155	0x3fe691fb	1.80133
156	0x3ed2ac8a	0.41147262
157	0x404aca49	3.1685965
158	0x3d666d7e	0.056256764
159	0x3efea295	0.49733415
160	0xbf53c505	-0.827225
161	0xbfbda788	-1.4816751
162	0xbf610a3b	-0.87906235
163	0xbec2bda1	-0.380353
164	0x3e8fe9a2	0.28107935
165	0x3f1a08b6	0.6016954
166	0x3e6aeea4	0.22942597
167	0xbc310af2	-0.010805832
168	0x400f41d9	2.238394
169	0x3fa49fe4	1.2861295
170	0x3fbbaa3b	1.4661325
171	0x3f0644e3	0.5244886
172	0x3f827d0b	1.019441
173	0xbf23c13f	-0.63966745
174	0x3e6200b5	0.22070582
175	0xbfa58ca8	-1.293355
176	0xbf88083c	-1.0627513
177	0xbe622046	-0.22082624
178	0x401fd982	2.4976506
179	0x400980d0	2.148487
180	0xbfccd05c	-1.6001086
181	0xbfba3ee3	-1.4550442
182	0xbfc86a6c	-1.5657477
183	0x3e8e9469	0.27847603
184	0x3fbb67c9	1.4641048
185	0x400ba07b	2.18167
186	0xbfb357f0	-1.4011211
187	0x3f848a6a	1.0354741
188	0x3f9965f0	1.1984234
189	0x3e67f8f3	0.2265356
190	0xbff8256c	-1.938642
191	0x3ee5d9b8	0.4489267
192	0x401a4181	2.410248
193	0x3ff93075	1.9467913
194	0xbcdccfcb	-0.026954552
195	0xbfd1660a	-1.6359265
196	0xc00f1155	-2.2354329
197	0xbeeac319	-0.45851973
198	0xbfa0cfbe	-1.2563398
199	0x3de1f111	0.11032308
200	0xbf4719a5	-0.77773505
201	0x3fb1c2b5	1.3887545
202	0xbf228653	-0.6348621
203	0x3efb8c50	0.49130487
204	0xbf98e5d1	-1.1945134
205	0x3f5ddc74	0.8666451
206	0xc00516d7	-2.079519
207	0x3faa3bd7	1.3299512
208	0xbe80fc24	-0.25192368
209	0x3f0e38d6	0.55555475
210	0x3f85afd1	1.044428
211	0x3fbb1cde	1.4618185
212	0xbe0a08b0	-0.13479877
213	0xbe3c46f6	-0.18386444
214	0x3e0b8dd7	0.13628326
215	0xbd70710e	-0.058701567
216	0x3f020f9e	0.5080508
217	0x3d402828	0.046913296
218	0x3f7dfaa1	0.99210554
219	0xbfef5f6e	-1.8700998
220	0x3f5f666a	0.87265646
221	0x3f516371	0.8179236
222	0x3fef15bf	1.8678511
223	0xbe9e8d38	-0.30967116
224	0x3f75deaf	0.96042913
225	0xbf8f7d68	-1.1210146
226	0x40000660	2.000389
227	0xbf40dc1c	-0.7533586
228	0xbf582865	-0.8443664
229	0xbed3a293	-0.41334972
230	0x3f68a224	0.90872407
231	0x3cb8a569	0.022539811
232	0x3ee7b410	0.45254564
233	0xbffbf92e	-1.9685419
234	0x3da488da	0.08033915
235	0xbed06d22	-0.40708262
236	0xbffcca80	-1.9749298
237	0x3dc7fb43	0.09764721
238	0xbf117167	-0.56813663
239	0x3e324b68	0.17411578
240	0xbf496526	-0.78669965
241	0x3fcded91	1.6088125
242	0xc0172875	-2.3618443
243	0x3e89e11f	0.26929566
244	0xbfc6e439	-1.5538398
245	0xbed07f7d	-0.40722266
246	0xc015d184	-2.3409128
247	0x3f26d1e4	0.6516402
248	0xbefddc21	-0.49582008
249	0x3f513466	0.8172058
250	0xbf8a7988	-1.0818338
251	0x3fb781dc	1.4336505
252	0xbf7c1493	-0.98468894
253	0x3f99873c	1.1994395
254	0xbfaa314b	-1.3296293
255	0xbf2b610a	-0.66944945

input_layer.bias f4 [128]
0	0xbe011a05	-0.12607582
1	0xbff5af84	-1.9194188
2	0xbfcf2fdd	-1.6186482
3	0xbf9e639f	-1.2374152
4	0xbf5acad1	-0.85465723
5	0xbeaad146	-0.33362788
6	0xbfea2426	-1.8292282
7	0xbc4109f0	-0.011782154
8	0xbff2a596	-1.8956783
9	0xbe2cc48b	-0.1687185
10	0xbeeff62b	-0.468675
11	0xbfca0f3c	-1.5785899
12	0xbf2e1acd	-0.68009645
13	0xbf8bf311	-1.0933553
14	0xbf7ec5bb	-0.9952046
15	0xbfd375f7	-1.6520375
16	0xbe233ae4	-0.15940434
17	0xbf649ce5	-0.893019
18	0xbf501ac0	-0.8129082
19	0xbfa2fac7	-1.2732781
20	0xbf167e76	-0.58786714
21	0xbe3108ea	-0.17288557
22	0xbf8c4f39	-1.0961677
23	0xbf6daf2e	-0.9284543
24	0xbf20ed00	-0.62861633
25	0xbfb0f2eb	-1.3824133
26	0xbfd98772	-1.699446
27	0xc001542d	-2.0207627
28	0xbef6ba2c	-0.48188913
29	0xbe7f98bc	-0.24960607
30	0xc003d651	-2.0599558
31	0xbf4d7494	-0.8025601
32	0xbe0b79ff	-0.13620757
33	0xbf4c8635	-0.79892284
34	0xbdd85a45	-0.105640925
35	0xbf8f7bab	-1.1209615
36	0xbf569ba3	-0.8383123
37	0xbef158d5	-0.47138086
38	0xbf8135c7	-1.0094537
39	0xbfa91361	-1.3209039
40	0xbe81edac	-0.25376642
41	0xc00574e6	-2.08526
42	0xbf4d16c9	-0.8011289
43	0xbdd65326	-0.10465078
44	0xbf86d776	-1.0534503
45	0xbf2c2c90	-0.67255497
46	0xbf678096	-0.9043058
47	0xbf04ae26	-0.5182823
48	0xbf6bf445	-0.921696
49	0xbfad1575	-1.3522173
50	0xbff1eb61	-1.8899957
51	0xbf32e402	-0.6987916
52	0xbfe8aa43	-1.817696
53	0xbfe622d5	-1.797938
54	0xc00c130f	-2.1886632
55	0xbf956157	-1.1670331
56	0xbfe7b4c9	-1.8102046
57	0xbf729707	-0.947617
58	0x3be8f675	0.007109458
59	0xbee3e8b8	-0.44513488
60	0xbdb07fe2	-0.08618142
61	0xbf413a5b	-0.7547967
62	0xbf8e9cac	-1.1141562
63	0xbff346a8	-1.9005938
64	0xbf9a2983	-1.2043918
65	0xbfa79faf	-1.3095607
66	0xbf95c57f	-1.1700896
67	0xbf9d4923	-1.2287945
68	0xbf16fa2b	-0.58975476
69	0xbf807fe2	-1.0039027
70	0xbf9ce8fe	-1.2258604
71	0xbf889f53	-1.0673622
72	0xbf9a1882	-1.2038729
73	0xbff8e566	-1.9445007
74	0xbfc81770	-1.5632153
75	0xbf29222b	-0.6606776
76	0xbfa83966	-1.3142517
77	0xbe882750	-0.26592493
78	0xbe915c87	-0.28390905
79	0xbca0a979	-0.01961206
80	0xbfb4ce84	-1.4125524
81	0xbea7d08b	-0.32776293
82	0xbc411ad1	-0.011786179
83	0xbdae778a	-0.08518894
84	0xbff1acbe	-1.8880842
85	0xbfd1d580	-1.639328
86	0xbf68a02a	-0.9086939
87	0xbc929302	-0.017892364
88	0xbe9974ae	-0.29971832
89	0xbea77649	-0.32707432
90	0xbd44d36c	-0.04805319
91	0xbf372a56	-0.71548975
92	0xbed86c8b	-0.42270312
93	0xbf46976b	-0.77574795
94	0xbf11978b	-0.5687186
95	0xbfea62dd	-1.8311421
96	0xbfaf2278	-1.3682394
97	0xbf9f8f1f	-1.2465552
98	0xbf3b6827	-0.732058
99	0xbedd9f78	-0.43285728
100	0xbe7caabd	-0.24674506
101	0xbf8efdcf	-1.1171206
102	0xbfd86639	-1.6906196
103	0xbf6946e5	-0.911238
104	0xbec9cb6a	-0.39413005
105	0xbef4d991	-0.4782224
106	0x3b043270	0.0020171665
107	0xbe9de54a	-0.30838996
108	0xbf13ff01	-0.5781098
109	0xbfb31518	-1.3990812
110	0xbee7b8ad	-0.45258084
111	0xbf23429c	-0.6377351
112	0xbee3e04a	-0.44507056
113	0xbfd8a8f3	-1.6926559
114	0xbff301cf	-1.8984927
115	0xbf855caa	-1.0418904
116	0xbee6fea0	-0.45116138
117	0xbf02033d	-0.5078619
118	0xbeadb225	-0.33924976
119	0x397272c0	0.00023121666
120	0xbf574804	-0.8409426
121	0xbfd13001	-1.6342775
122	0xbeca7b39	-0.39547136
123	0xbf6e68ad	-0.9312847
124	0xc0095c7e	-2.1462703
125	0x3b13fff0	0.002258297
126	0xbfd117e4	-1.6335416
127	0xbf681bf2	-0.9066764

hidden1.weight f4 [64, 128]
0	0x3e919c0a	0.2843936
1	0xbefac7cb	-0.48980555
2	0xbe915c44	-0.28390706
3	0xbe96b0c0	-0.29431725
4	0x3fa6b869	1.3025028
5	0xbebbc875	-0.36676374
6	0xbec3eee5	-0.382682
7	0x3f8b0725	1.0861555
8	0xbea66f21	-0.3250666
9	0xbf1667e5	-0.5875228
10	0x3dd4c349	0.1038881
11	0x3e9bb709	0.30413082
12	0xbe09548d	-0.1341116
13	0x3f0a695b	0.5406701
14	0x3eb5b1e8	0.35487294
15	0xbee2c132	-0.4428802
16	0x3f8c65d2	1.0968573
17	0x3e612d83	0.21990018
18	0xbfa66d27	-1.3002061
19	0x3f33937b	0.7014691
20	0xbe930ae3	-0.28719243
21	0xbed38e4b	-0.41319498
22	0xbf097561	-0.5369473
23	0x3d727754	0.05919583
24	0x3e255f9c	0.16149753
25	0xbf87c861	-1.0608026
26	0xbf2f0baf	-0.683772
27	0xbf87aeb2	-1.0600188
28	0xbf15fa84	-0.5858538
29	0x3ffe22f9	1.9854423
30	0xbe5ead96	-0.21745905
31	0x3f15c0d4	0.5849736
32	0xbf92f23e	-1.1480176
33	0x3f5c2ee6	0.8600906
34	0xbf726714	-0.94688535
35	0xbe272adf	-0.16324948
36	0x3ebb513f	0.36585423
37	0x3e3b3f3b	0.1828584
38	0x3bb4c61a	0.0055167796
39	0xbe88f2f3	-0.26747856
40	0xbe75bc3b	-0.23997585
41	0xbdd4148e	-0.10355483
42	0x3e91ba46	0.28462428
43	0x3ff54b8c	1.916368
44	0x3f189695	0.5960477
45	0xbe73c438	-0.2380532
46	0xbe654e17	-0.2239307
47	0x3b5b2f56	0.0033444962
48	0xbf7235e9	-0.9461351
49	0xbf1f9769	-0.6234041
50	0xbe8c0554	-0.27347815
51	0xbee66c6e	-0.450046
52	0xbec5c002	-0.38623053
53	0xbe96ddc9	-0.29466084
54	0xbf22c9b7	-0.6358904
55	0xbf2986a3	-0.66221064
56	0xbe996aca	-0.29964286
57	0x3e9e490f	0.30915114
58	0x3e9b6118	0.30347514
59	0xbd70b8da	-0.05877004
60	0xbf32b897	-0.6981291
61	0x3e5f101a	0.21783486
62	0x3cd36fed	0.025810206
63	0xbeddc7c9	-0.43316486
64	0x3e363211	0.17792536
65	0xbed6d1a7	-0.41956827
66	0x3e5ff851	0.21872069
67	0xbd861045	-0.06546072
68	0xbf195aeb	-0.59904355
69	0xbf28bfad	-0.65917474
70	0xbeb94c14	-0.36190856
71	0xbfa9c005	-1.3261725
72	0xbf372b13	-0.715501
73	0x3cc4b4e4	0.024012037
74	0x3e10ef8c	0.1415388
75	0x3ebe20ce	0.37134403
76	0xbefd8e05	-0.49522415
77	0xbf852a7b	-1.0403589
78	0x3ece8b82	0.4034081
79	0x3c96d6c0	0.018412948
80	0xbf440396	-0.7656797
81	0xbdc56e4f	-0.0964018
82	0x3b12ec4c	0.0022418676
83	0xbf1e0285	-0.61722594
84	0xbf151fb6	-0.5825151
85	0xbe9d3b66	-0.3070938
86	0x3e905bb1	0.28194955
87	0xbdb94540	-0.090464115
88	0xbf823de8	-1.0175142
89	0xbe87bc59	-0.26510885
90	0xbe956cda	-0.2918461
91	0xbf2f3dcc	-0.6845367
92	0xbf14d5ef	-0.58138937
93	0xbfb11f63	-1.3837703
94	0xbf43ff10	-0.7656107
95	0xbed69812	-0.41912895
96	0xbd876956	-0.06611888
97	0x3d839468	0.064247906
98	0xbf836a30	-1.0266781
99	0x3f5b7d6e	0.85738266
100	0x3dbc2e9b	0.09188577
101	0xbf32b4a4	-0.69806886
102	0xbf41e11a	-0.757341
103	0x3ed5077a	0.41607267
104	0xbe5b737b	-0.21430771
105	0xbf276e2d	-0.6540249
106	0xc01194ce	-2.2747073
107	0x3dcbacf1	0.09945095
108	0xbc4c6055	-0.012474139
109	0x3f0fc3a8	0.5615792
110	0x3dcd1280	0.10013294
111	0x3eaa3544	0.33243763
112	0x3f91d4db	1.1393083
113	0xbf0e4381	-0.5557175
114	0xbec73e1f	-0.38914582
115	0xbea84ecb	-0.32872614
116	0xbf5dcef4	-0.8664391
117	0x3e0de447	0.13856612
118	0xbf0d5b78	-0.55217695
119	0xbe17cfe6	-0.148254
120	0xbee1633a	-0.44021016
121	0xbea6e627	-0.32597467
122	0x3fae0821	1.3596231
123	0x3e41dd37	0.18932043
124	0xbf42a695	-0.76035434
125	0xbe99393e	-0.29926485
126	0x3ebf0643	0.37309465
127	0xbec04fb6	-0.37560815
128	0x3fe92765	1.8215147
129	0xbf071aff	-0.5277557
130	0xbeba311d	-0.36365595
131	0x3f90a6e0	1.1300926
132	0x3f54da8d	0.8314598
133	0x3fa621bf	1.2979048
134	0xbee0ba20	-0.43892002
135	0x3e4efc33	0.20213394
136	0xbefbf73f	-0.4921207
137	0x3e3a73f6	0.18208298
138	0x3f22bf2f	0.63572973
139	0xbe4a5083	-0.19757275
140	0x3ef29235	0.47377172
141	0x3f54312b	0.82887524
142	0x3f7c5b8b	0.98577183
143	0xbee9f8bc	-0.45697582
144	0x40541040	3.3134918
145	0x3f35ae06	0.70968664
146	0x3df3342c	0.11875185
147	0x3fc09ce9	1.5047885
148	0xbd07485e	-0.033028
149	0x4031ea17	2.7799127
150	0xbe0b315a	-0.13593045
151	0x3f65c631	0.8975554
152	0x3f9767bc	1.1828532
153	0xbee70e17	-0.45127937
154	0xbf0cdf4c	-0.55028224
155	0xbf1b8889	-0.6075521
156	0x3ee346b0	0.44389868
157	0x3faa755c	1.3317065
158	0xbe71e07f	-0.23620795
159	0x3fd302a4	1.6485181
160	0xbc518918	-0.012789033
161	0xbd81bfb5	-0.06335393
162	0xbf18b352	-0.5964862
163	0x3fab4364	1.3379941
164	0x3f500776	0.81261384
165	0x3ea24c1c	0.31698692
166	0xbf203125	-0.6257499
167	0xbee49ced	-0.44650975
168	0x3f2e9479	0.681953
169	0xbee6468d	-0.449757
170	0x3f6466e2	0.89219487
171	0x3f7105d9	0.9414955
172	0xbde98598	-0.11402434
173	0xbf45e2c0	-0.7729912
174	0xbee7f4ac	-0.45303857
175	0x3f2bf35b	0.67168206
176	0x3f264b50	0.6495867
177	0x3d9e1695	0.07719151
178	0xbf10904d	-0.56470186
179	0xbf027297	-0.509561
180	0xbeef5872	-0.46747166
181	0xbeef750a	-0.4676898
182	0xbf1c8256	-0.61136377
183	0xbec2553e	-0.3795566
184	0xbe822763	-0.25420675
185	0xbe2c255a	-0.16811123
186	0xc03a4d7f	-2.91098
187	0xbec4c040	-0.38427925
188	0xc108cd9d	-8.550199
189	0x401b2e99	2.424719
190	0x3e8bd7be	0.27313036
191	0xbee22267	-0.44166872
192	0x4001caac	2.027995
193	0xbdb97aa8	-0.09056598
194	0xbe84b535	-0.259195
195	0xbea4e6e6	-0.32207412
196	0xbe483482	-0.1955128
197	0x3f4f634b	0.81010884
198	0x3f148005	0.5800784
199	0x3ebd3f02	0.36962134
200	0x3ef324a1	0.47488883
201	0xbe136184	-0.14392668
202	0xbedc1574	-0.42985117
203	0xbf1e7bb1	-0.6190749
204	0xbd65a738	-0.056067675
205	0x3e9f3bcf	0.31100318
206	0x3faa26d1	1.3293096
207	0x3f5aeb1f	0.85515016
208	0xbeb61425	-0.35562244
209	0x3fca9e4b	1.5829557
210	0xc0d18f4a	-6.5487413
211	0x3f4a28df	0.78968614
212	0xbebbe831	-0.36700585
213	0xbeba203d	-0.3635272
214	0x3fb43828	1.4079638
215	0x3e309459	0.1724409
216	0x401ff691	2.4994242
217	0x3e2e2f65	0.17010267
218	0xc10d28e9	-8.822488
219	0x3e93bc63	0.28854665
220	0xbd6d8ed3	-0.057997536
221	0xbf5bcac3	-0.85856265
222	0x3f64a9af	0.89321417
223	0xbf032507	-0.51228374
224	0x3e1e64cc	0.15468138
225	0x3ff27043	1.894051
226	0x3fcb511e	1.588413
227	0x3f6d167e	0.92612445
228	0x3fd285fa	1.6447136
229	0xbe8a70df	-0.2703924
230	0x3f15da96	0.5853666
231	0x3e499b4f	0.19688152
232	0xbeb43f80	-0.35204697
233	0x3e45bf30	0.19311213
234	0x3ea6af6e	0.32555717
235	0xbe437409	-0.19087233
236	0x3fc7c646	1.5607383
237	0xbf6b7602	-0.9197694
238	0xbe389741	-0.18026449
239	0x3f8617f7	1.0476063
240	0x3fb8894b	1.4416898
241	0xbf2ecc0e	-0.6828011
242	0xbed11fec	-0.40844667
243	0xbe3063b5	-0.17225535
244	0xbf8310ea	-1.0239537
245	0xbe0dfabe	-0.13865182
246	0xbd73e1e4	-0.059541598
247	0x3f68983e	0.90857303
248	0x3f46dd80	0.7768173
249	0xbea19ccf	-0.31564948
250	0x3d278ae9	0.04090396
251	0x3f018a33	0.506015
252	0xbf18a7ad	-0.5963085
253	0xbee2db16	-0.44307774
254	0x3f4251db	0.7590615
255	0x3f59c38a	0.85063994

hidden1.bias f4 [64]
0	0xbff60cc0	-1.9222641
1	0x3fb52ace	1.4153688
2	0x3f357427	0.7088036
3	0xbfc0fa43	-1.5076374
4	0xbf56a8a1	-0.8385106
5	0xbe15b2aa	-0.14618936
6	0xbea5f76a	-0.32415324
7	0xbf5bdde8	-0.8588548
8	0xbdbfddfa	-0.093685105
9	0x3f7c1229	0.9846521
10	0xbecb6f53	-0.3973337
11	0xbfbe8abb	-1.4886087
12	0xbef166fc	-0.47148883
13	0x3f920192	1.1406729
14	0xbe6ff0a0	-0.23431635
15	0xbfcfa660	-1.6222649
16	0xc03b0404	-2.92212
17	0xbeecf098	-0.46277308
18	0xbe4416ca	-0.19149318
19	0xbec9b02d	-0.39392224
20	0xbef310a6	-0.4747364
21	0xbec34d1f	-0.38144776
22	0x3f492a96	0.78580606
23	0xbe911453	-0.2833582
24	0xbf00629a	-0.50150454
25	0xbf036dcc	-0.5133941
26	0xc0164052	-2.3476758
27	0xbfd570e3	-1.6675075
28	0xbefba263	-0.4914733
29	0xbee7b283	-0.4525338
30	0xc00d2316	-2.2052665
31	0xbeb8bda2	-0.36082178
32	0x3f459644	0.7718241
33	0xbe2ba2a4	-0.16761261
34	0xc0588f2f	-3.3837392
35	0xbee53f8e	-0.4477505
36	0xbe60da31	-0.21958233
37	0xbf7bfb1d	-0.98430043
38	0xbe808605	-0.2510225
39	0xc03043a9	-2.7541296
40	0xbfb5d157	-1.420451
41	0x3ece6c45	0.40316978
42	0xbf4142d7	-0.75492615
43	0x3f2542c1	0.64554983
44	0xbe91a791	-0.28448156
45	0xbf84b3f5	-1.0367419
46	0xbe1c487e	-0.15262029
47	0xbda9e08b	-0.08294781
48	0xbfc37b11	-1.5271932
49	0xbec728b8	-0.38898253
50	0xbf5aa7a8	-0.85412073
51	0xbddf7b0f	-0.109121434
52	0xbea7af15	-0.32750764
53	0xbe734619	-0.23757209
54	0xbe7301e1	-0.23731185
55	0xbf0f25a4	-0.5591681
56	0xbe26a7bf	-0.16274928
57	0x3f333c5d	0.7001398
58	0xbf9c7056	-1.2221782
59	0xbcda326f	-0.026635377
60	0xbf3c5730	-0.7357054
61	0xbf0c4ece	-0.54807746
62	0xbe0f81ad	-0.14014311
63	0xbf9e08ac	-1.2346396

hidden2.weight f4 [8, 64]
0	0x3f2e5e89	0.68113
1	0x3f44ccf5	0.7687524
2	0x3fe8f1d8	1.8198805
3	0xbe81924a	-0.25306922
4	0x3e88315c	0.26600158
5	0x3e1dab43	0.15397362
6	0xbd2eefe7	-0.042709257
7	0x3f6b0dac	0.91817737
8	0x3c51bd4e	0.012801481
9	0x3fae7d5a	1.3632004
10	0x3ee5c1b4	0.44874346
11	0xbf234acb	-0.63786
12	0x3fba570e	1.4557817
13	0x3f8c72c5	1.0972525
14	0xbd6d1274	-0.057878926
15	0xbf454a0c	-0.7706611
16	0xbccad7d2	-0.024761114
17	0xbf28600e	-0.6577157
18	0xbf3e0263	-0.7422239
19	0x3e20d4cb	0.15706174
20	0x3e2777e3	0.16354327
21	0x3f7282f9	0.947311
22	0x402382a7	2.5548494
23	0xbe0ca97e	-0.13736531
24	0x3f644dad	0.89181024
25	0x3f56a2c7	0.8384213
26	0x3d30eb22	0.04319299
27	0x3d325fd3	0.043548416
28	0x3f2c29c9	0.6725126
29	0x3e94ee06	0.29087847
30	0xbf65c8f2	-0.89759743
31	0xbdef6757	-0.116896324
32	0x3f9cf7a0	1.2263069
33	0xbdff3309	-0.12460906
34	0x3d1e318f	0.03862148
35	0xbe4abef7	-0.1979941
36	0x3e645e0c	0.22301501
37	0xbf4648dc	-0.77454925
38	0xbe6e03aa	-0.23243585
39	0xbf1c7641	-0.6111794
40	0xbf7db3ab	-0.99102277
41	0x3f93b1e5	1.1538664
42	0x3f0a0cca	0.53925765
43	0x3fdef3aa	1.741811
44	0x3dc14b63	0.09438207
45	0x3f39c046	0.7255901
46	0x3d131a5c	0.03591381
47	0x3e38b44a	0.18037525
48	0xbf8a0e3e	-1.0785596
49	0x3e30baff	0.17258833
50	0xbf4683fa	-0.7754513
51	0xbcc9f19f	-0.024651347
52	0x3f815284	1.0103307
53	0xbde20207	-0.11035543
54	0x3e88548d	0.26627007
55	0xbe2492f9	-0.1607169
56	0x3d9b7c82	0.07592107
57	0x3fd20622	1.6408122
58	0x3e8f4606	0.2798311
59	0x3dbe2920	0.09285188
60	0xbe70f22d	-0.23529883
61	0xbe858b93	-0.2608305
62	0x3f6bb553	0.92073554
63	0xbee438d2	-0.445746
64	0x3e999994	0.29999983
65	0x3ff8f5bd	1.9449993
66	0xbe149edb	-0.14513724
67	0x3d410b3f	0.047129866
68	0x3f506987	0.8141102
69	0x3d59a318	0.053134054
70	0x3df4462c	0.11927447
71	0x3eef489e	0.4673509
72	0x3dd8cf19	0.10586376
73	0x3faf761d	1.370792
74	0xbec77686	-0.38957614
75	0xbf6a535c	-0.91533446
76	0xbfd32a87	-1.6497353
77	0x3fd24690	1.6427784
78	0x3d16a299	0.03677616
79	0xbe9e315f	-0.30897042
80	0x3e9d06cb	0.30669245
81	0xbef4dbd1	-0.47823957
82	0x3ef43d0e	0.4770283
83	0xbdbae4fc	-0.091257066
84	0xbe549ced	-0.20762987
85	0x3f3c2a0a	0.73501647
86	0xbf4fa673	-0.81113356
87	0x3ebd253f	0.3694248
88	0x3f7afa1a	0.98037875
89	0x3f9d1708	1.2272654
90	0x3d5dae8d	0.054121543
91	0x3e92b311	0.28652242
92	0xbe3f189b	-0.1866173
93	0x3d615819	0.055015657
94	0xbf42c61b	-0.76083535
95	0x3ebc21fa	0.36744672
96	0x3f9b7adb	1.2146868
97	0x3de10824	0.10987881
98	0x3e6e2c19	0.2325901
99	0x3ea9f14a	0.331919
100	0xbde9ebd6	-0.11421935
101	0xbe9864e6	-0.2976448
102	0x3e3f31f5	0.18671401
103	0x3eb55ca4	0.35422242
104	0x3c38610c	0.0112536065
105	0x3f8ecdda	1.1156571
106	0x3f482f10	0.7819681
107	0xbd92cf57	-0.07168453
108	0x3cb1ff17	0.021728082
109	0x3efd9a45	0.4953176
110	0xbdc4b20d	-0.09604273
111	0x3c176f41	0.009242834
112	0xbef3aa6b	-0.47590956
113	0x3cc353bd	0.02384364
114	0x3f1dce89	0.6164327
115	0x3e077b74	0.13230687
116	0xbf20570c	-0.62632823
117	0x3ddb290d	0.10701189
118	0xbf74de47	-0.9565167
119	0x3e0f3799	0.13986053
120	0xbd39082e	-0.045173816
121	0x3e1e7f2b	0.15478198
122	0xbe54133c	-0.20710462
123	0xbc712ad4	-0.014719684
124	0xbe104f53	-0.1409276
125	0x3d679096	0.056534372
126	0xbf81c5c0	-1.0138474
127	0x3ee7c912	0.45270592
128	0xbe97075f	-0.2949781
129	0xbe04f381	-0.12983514
130	0xbe0a9972	-0.13535097
131	0x3b99bfc0	0.004692048
132	0xbdf11cd6	-0.11773078
133	0xbd3a88d3	-0.045540642
134	0xbd0c0d6c	-0.034192488
135	0xbd8eb9f2	-0.0696906
136	0xbd2838f4	-0.04106994
137	0xbe10851b	-0.14113276
138	0xbea62878	-0.3245275
139	0xbeac2c16	-0.33627385
140	0xbda8ad18	-0.0823614
141	0xbeb122a3	-0.34596738
142	0x3c7b6d10	0.015345827
143	0xbeba91dd	-0.3643941
144	0xbda4f19b	-0.08053895
145	0xbe9deb53	-0.308436
146	0xbd2a71ad	-0.041612316
147	0x3d51c190	0.051209986
148	0xbd52c44c	-0.051456735
149	0xbe12384f	-0.14279293
150	0xbd52cff2	-0.051467843
151	0x3d293193	0.041307043
152	0xbe5d1ef3	-0.21593837
153	0xbeb6b4ca	-0.35684806
154	0xbd5a05a0	-0.05322802
155	0xbea69734	-0.32537234
156	0xbe90dcd4	-0.28293478
157	0xbd989284	-0.07449821
158	0xbec9927f	-0.3936958
159	0x3c11189b	0.008855964
160	0xbe9a1202	-0.30091864
161	0xbdcf8ce4	-0.10134295
162	0xbe8c1081	-0.2735634
163	0xbd47ed90	-0.04881054
164	0x3cca9010	0.024726897
165	0xbc20fb49	-0.009825536
166	0xbd24ba68	-0.040216833
167	0xbe98fd67	-0.2988083
168	0xbe161a88	-0.14658558
169	0xbebecf63	-0.37267599
170	0x3bc32818	0.0059557073
171	0xbd8d78b3	-0.06907787
172	0x3decdf36	0.115660116
173	0xbe680029	-0.22656311
174	0x3d406390	0.04696995
175	0xbd813490	-0.063088536
176	0xbe83e856	-0.25763196
177	0xbe21f881	-0.15817453
178	0xbe3ece6e	-0.18633434
179	0x3da0ae3a	0.07845731
180	0xbdd7b826	-0.105331704
181	0xbd50e286	-0.05099728
182	0xbea6492b	-0.32477698
183	0xbe618414	-0.2202304
184	0x3d010440	0.031498194
185	0xbdfca755	-0.123366036
186	0xbdbd4e8e	-0.09243499
187	0x3d45a7d7	0.048255768
188	0x3a0fc205	0.0005483928
189	0x3b5cb640	0.0033677965
190	0xbda2a75c	-0.079420775
191	0xbed5a4a5	-0.41727176
192	0xbc2614b7	-0.010136775
193	0xbd831358	-0.06400174
194	0xbd745339	-0.05964968
195	0xbd86d6f4	-0.06583968
196	0xbbd3c73d	-0.00646296
197	0xbddfdb4a	-0.10930498
198	0x3ddc426c	0.107548565
199	0x3cb179d8	0.021664545
200	0xbc0dbd90	-0.008651152
201	0xbe77d127	-0.24200879
202	0xbd4f7fab	-0.050658863
203	0xbe8d6364	-0.27614892
204	0xbcca34ba	-0.024683345
205	0xbdec4268	-0.115361035
206	0xbd4502a4	-0.04809822
207	0xbda0e8dc	-0.078569144
208	0x3d8097e2	0.06278969
209	0xbe63c2d4	-0.2224229
210	0xbe73cb8b	-0.23808114
211	0x3d2c59f4	0.042077973
212	0x3de4dbbe	0.11174725
213	0xbe267ac8	-0.16257775
214	0x3d4b5e18	0.04965028
215	0x3d372aa8	0.044718415
216	0xbca81dec	-0.02052208
217	0xbcae3795	-0.021266738
218	0xbe12ca79	-0.1433505
219	0x3d4a2f90	0.049361765
220	0xbdadcd54	-0.08486429
221	0x3cb90030	0.022583097
222	0x3c68acc0	0.014201343
223	0x3dd7a5f8	0.10529703
224	0xbe87c3b7	-0.26516506
225	0xbddc4c8c	-0.10756788
226	0xbdbfb7a4	-0.093611985
227	0xbdd93e56	-0.10607593
228	0x3dc5cace	0.096578225
229	0x3cbda4f0	0.023149937
230	0xbd794638	-0.06085798
231	0xbe23203e	-0.15930268
232	0xbd9119cc	-0.070849985
233	0xbdee63dc	-0.116401404
234	0xbe07dafd	-0.13267131
235	0x3c3ca839	0.011514717
236	0xbde425ba	-0.11140008
237	0xbcdf3240	-0.02724564
238	0x3c5fd090	0.013660565
239	0x3d8a2e02	0.067470565
240	0x3d98d148	0.07461792
241	0x3d14b5c4	0.036306158
242	0xbd96eff0	-0.07369983
243	0x3c32d680	0.010915399
244	0x3c3a0d90	0.011355773
245	0xbc922ac0	-0.01784265
246	0xbd55be9e	-0.05218374
247	0xbd8372ec	-0.06418404
248	0xbbdaac40	-0.006673366
249	0x3d3194b7	0.043354716
250	0xbca646b0	-0.020297378
251	0xbdb9cc84	-0.090722114
252	0xbdc5d2fe	-0.09659384
253	0xbdc38fe8	-0.09548932
254	0xbe80ae6f	-0.25133082
255	0x3c64cd94	0.013965029

hidden2.bias f4 [8]
0	0x3f72387b	0.9461743
1	0x40016909	2.0220358
2	0xbe5dd580	-0.21663475
3	0xbe8fc666	-0.28081053
4	0xbeb2a959	-0.34894827
5	0xbe934d4f	-0.2876992
6	0xbf061dec	-0.5238941
7	0xbebbac8c	-0.3665508

output.weight f4 [1, 8]
0	0xbe863bd0	-0.26217508
1	0x3d9301b8	0.07178062
2	0x3e8bb57f	0.27286908
3	0xbe15f728	-0.14645064
4	0x3e176dfe	0.14788052
5	0xbeb297c7	-0.34881422
6	0xbe89762e	-0.26847976
7	0xbde29940	-0.11064386
