models/model3.pt (torch, 345652 bytes, 7 tensors)

input_layer.weight f4 [128, 600]
000000 8c 43 a6 be 9a 7c 26 bf ca 18 77 bf 2a fb 36 3f
       -0.3247341 -0.65033877 -0.965222 0.71476996
000010 96 fd 67 3d d7 62 ec 3e 90 cc b3 be 94 21 8e bf
       0.056638323 0.4616916 -0.35117006 -1.1103997
000020 02 54 3d bf 42 14 0a bf f1 94 dd 3c 3d 45 ca bd
       -0.7395631 -0.5393716 0.02704856 -0.098764874
000030 46 52 96 be e9 a9 2a bf 12 dd 20 3f 4c dd 32 bf
       -0.29359645 -0.6666551 0.62837327 -0.6986892
000040 1e 6c a5 3f be 0d f3 3e 86 3d a0 3e 2a ed 7c bf
       1.292362 0.47471422 0.3129694 -0.98799384
000050 58 89 69 3e 0e 84 d6 be b1 8d 80 3f 54 b2 e0 be
       0.22806299 -0.41897625 1.0043241 -0.43886054
000060 57 4a 99 3e 93 46 f8 be 8d 73 e5 3f ac e3 ae 3e
       0.2993953 -0.48491344 1.7925888 0.34158075
000070 9f 38 31 3f ae 67 d4 be 5d d0 05 3f 2b 0c 8a 3e
       0.6922702 -0.4148535 0.5227106 0.26962408
000080 da 03 70 3f 3f 63 8e bf c5 c1 08 3f eb 90 4e bf
       0.93755877 -1.1124038 0.5342067 -0.8068988
000090 aa 4d 92 3e 95 76 54 bf 8e 72 bb 3d 0a 9b 89 3e
       0.28574878 -0.8299344 0.09152709 0.26876098
0000a0 9a 9d 9d bf fd 1e 76 3f 3a 88 23 3f 54 09 ad bf
       -1.2313721 0.96141034 0.6387974 -1.3518472
0000b0 fd ec 54 3f b1 6e 9e 3e 23 ff 13 bd e1 f8 96 3f
       0.83174115 0.30943826 -0.03613199 1.1794702
0000c0 b0 97 36 3f f0 b0 31 bf a5 21 18 be 93 d7 03 3e
       0.71325207 -0.6941061 -0.14856584 0.12875204
0000d0 3f 7e b8 bd a9 95 a7 3f 90 2e c1 3d 38 28 30 be
       -0.090084545 1.3092548 0.09432709 -0.17202842
0000e0 ff 3c a6 3f 53 4d 48 bf a7 82 1e 3f 32 e0 c9 3f
       1.2987365 -0.7824299 0.6191811 1.5771544
0000f0 6f 7b 03 bd 3c f4 f7 3d 2d 7c ad 3e 93 d9 3a bf
       -0.032100137 0.12107131 0.338838 -0.7298824
000100 e6 e4 35 3e d7 8f 82 3f 56 dc 99 bc b2 62 15 3f
       0.17763099 1.0200146 -0.018781822 0.5835372
000110 8c 4d b0 be 89 f9 98 3f 06 f8 16 bc 3a ac 71 3e
       -0.34434164 1.1951152 -0.009214407 0.23600855
000120 62 54 d9 be 03 a6 1d bf 34 39 be be 8f b6 18 bf
       -0.4244719 -0.6158144 -0.37153018 -0.5965356
000130 49 15 6e 3e 54 cb 9b bd a7 69 81 bf 84 20 94 3f
       0.23250307 -0.07607141 -1.0110368 1.1572423
000140 ca 16 74 3f 41 05 78 3f 30 af 4d 3f a6 6a 5e bf
       0.95347273 0.96883017 0.8034544 -0.8688148
000150 5d b2 ae 3c 70 24 b5 bf 25 46 2c be 40 47 fc be
       0.021325285 -1.4151745 -0.16823633 -0.4927311
000160 42 52 91 3e 27 03 ce be 83 ab 60 3f bf 67 81 bf
       0.2838307 -0.4023678 0.87761706 -1.0109786
000170 25 47 18 3f 61 1e c9 3d 77 f0 e5 be 7b bf 1a 3f
       0.5948356 0.098202474 -0.44910023 0.60448426
000180 f4 6c 44 3f bc d6 82 3e fe e9 7e be c0 9b ed be
       0.7672875 0.25554454 -0.24893948 -0.4640789
000190 43 bd d8 3e a5 65 cc be a0 6e f8 bf 4d 1a c8 3c
       0.42331895 -0.399213 -1.940876 0.024426604
0001a0 c4 98 97 be 3c 75 7d 3f c2 a6 fa 3e bc e7 59 3f
       -0.29608738 0.9900701 0.4895535 0.85119224
0001b0 22 86 62 bf 61 64 44 3f 32 c3 aa bf d2 5b e7 be
       -0.8848592 0.76715666 -1.3340819 -0.4518724
0001c0 5c 22 7d 3f 52 9a 8e 3f 7c c7 39 3f c6 d8 2f 3d
       0.98880553 1.1140845 0.72570014 0.04293134
0001d0 56 f7 88 bf 8f 74 14 bf b5 68 33 3f de 7f 10 bf
       -1.0700481 -0.57990354 0.70081645 -0.5644511
0001e0 dd e1 ab be af ca 0b 3f a2 cb 10 bf a2 a7 00 3f
       -0.33570758 0.54606146 -0.5656072 0.5025579
0001f0 b1 af e6 be 52 58 08 bf 04 bd 71 bf 82 12 d6 3d
       -0.45055917 -0.53259766 -0.9442904 0.10452749
000200 eb 48 b2 3f 40 6b 8d 3d ef 37 b5 bd 65 47 2d bf
       1.3928503 0.06905222 -0.08848559 -0.67687064
000210 4a a3 be be 51 12 bf be 2d b0 6b bf 6d eb 86 bf
       -0.37233955 -0.37318662 -0.920657 -1.0540596
000220 ce 2c cf 3e 36 5e 90 3d 76 21 a6 3e 15 7f 23 bf
       0.4046387 0.07049219 0.32447404 -0.63865787
000230 9e 4e ee be a5 e9 c7 3e d2 bd 58 3f 93 89 80 3f
       -0.46544355 0.39045444 0.8466464 1.0041984
000240 87 7a ba bd 86 d2 52 3e f3 a9 37 3d 29 c3 93 bf
       -0.091054015 0.20588121 0.04483981 -1.1543933
000250 93 2b 13 3f 6a 0d 63 3f 1a 1b c4 3d f2 73 12 be
       0.57488364 0.88692343 0.09575482 -0.14302042
000260 2d 95 4c bf a7 70 70 bf 0f 27 c0 3e 89 18 61 3f
       -0.79915124 -0.93921894 0.375298 0.8792806
000270 4c 2f 64 3e 34 76 51 bf 29 1d 79 be 36 b2 4b 3b
       0.22283667 -0.8182099 -0.2432753 0.0031081564
000280 ab d2 5d be d3 5e d7 be b6 f8 b6 3f 3e 6f 65 bf
       -0.21662395 -0.42064533 1.429465 -0.8962287
000290 d3 30 76 be d2 4e 2f 3f 50 f8 bf 3f c3 8a 7b bd
       -0.24042062 0.68479645 1.4997654 -0.06141163
0002a0 ff 21 07 3f 54 2c b0 be b7 bc 43 bf d3 d6 9e be
       0.5278625 -0.3440882 -0.7645983 -0.31023273
0002b0 61 86 97 bf 4e 6f 3d bb 3f 70 65 3f 73 b0 6d 3e
       -1.1837884 -0.0028905454 0.896244 0.23211841
0002c0 71 e6 23 3f 0a 88 2d bf 76 e7 0b bf 32 12 75 3e
       0.640235 -0.67785704 -0.54650056 0.23932722
0002d0 20 65 68 3f 4e e2 03 3f fc 49 da 3f 11 e4 d0 be
       0.90779305 0.5151719 1.7053828 -0.40799
0002e0 22 a5 a5 3e 46 ff 8c 3d 1c aa a1 bf 98 bb 65 bd
       0.3235255 0.06884627 -1.2630038 -0.056087106
0002f0 fa 90 12 3f 74 38 8f bf c8 2d 7b 3e a1 6b 9b be
       0.57252467 -1.1189103 0.24529183 -0.30355552
000300 57 7c 66 3f c4 cf 6f 3e 4f 44 13 bf df e3 10 3f
       0.9003348 0.234191 -0.57526106 0.56597704
000310 88 b8 88 3f 73 b1 83 3f 38 bf 43 3d 92 d0 d5 3c
       1.0681314 1.0288528 0.047789782 0.02610043
000320 47 46 70 3f ed ff 2d be c6 18 7d 3f 8f 47 46 3e
       0.93857235 -0.16992159 0.98865926 0.19363235
000330 90 38 1f 3f b1 70 d7 3e e5 c4 98 3f a1 66 64 3f
       0.6219568 0.42078164 1.1935087 0.892191
000340 1b 3b c0 3f c4 86 fe 3c 12 df 2e 3f a7 35 40 bf
       1.5018038 0.03107012 0.6830913 -0.75081867
000350 46 7d 2f bf 0c 90 44 be cb 27 00 be b5 1f 8c 3f
       -0.6855053 -0.19195575 -0.1251518 1.0947176
000360 1c 72 8d 3d 07 12 4a be b7 77 e8 be 57 fe da be
       0.0690653 -0.1973344 -0.45403835 -0.4277217
000370 5e 39 c1 3e ca 8d 8d 3c 24 9a 41 bd 16 0a 12 be
       0.3773908 0.017279524 -0.04726614 -0.1426166
000380 2e 14 52 3e 70 c4 8e bf f2 26 87 3e ac 7e 25 bf
       0.2051551 -1.1153698 0.263969 -0.6464641
000390 6e 89 f6 be 73 54 78 bf b3 58 8f 3e 4b b1 be be
       -0.48151726 -0.9700386 0.2799736 -0.3724464
0003a0 7c f1 19 3f 5a 6e a2 3f 2a 56 2e be 5f 0b 6a bf
       0.601341 1.2689927 -0.17025056 -0.914236
0003b0 c1 5d cb be fa 85 87 bf d4 27 57 3f 29 71 18 bf
       -0.39719966 -1.0587761 0.8404515 -0.5954767
0003c0 98 5d 90 3e 05 86 88 bf 06 8b 42 bf 9d d6 99 3e
       0.28196406 -1.06659 -0.7599338 0.3004655
0003d0 9b ca 23 3e 7e b8 64 3f e7 6a 13 3c d6 8b 84 be
       0.15995257 0.8934401 0.0089976555 -0.25887936
0003e0 80 c9 96 bf 57 5c 84 bf 99 23 55 bf 75 29 b6 3e
       -1.1780243 -1.034068 -0.8325744 0.35578504
0003f0 64 b0 2e bf b4 c1 e1 3f f1 01 44 3e 0f 10 0a 3f
       -0.682379 1.7637239 0.19141366 0.53930753

input_layer.bias f4 [128]
000000 00 5d 8e bf 90 aa 68 bf e3 16 d7 bf b8 03 a7 bf
       -1.1122131 -0.9088526 -1.680386 -1.304801
000010 d7 73 69 bf 21 ec c1 bf d3 5c a6 bf 27 f0 df be
       -0.9119238 -1.5150186 -1.2997078 -0.4373791
000020 88 ea 2a bf 00 47 02 bf 28 4c 36 bf 39 26 41 bf
       -0.66764116 -0.5088959 -0.71209955 -0.7544895
000030 14 af 93 bf 10 30 10 bf 9e 0a 35 3c 15 18 aa bf
       -1.1537805 -0.5632334 0.011049895 -1.3288599
000040 ba 26 90 be 3a 49 2a bf 90 eb e5 be 5f 7f 1c bf
       -0.28154546 -0.66517985 -0.44906282 -0.6113185
000050 4c d2 fd be 9a c5 1f bc 0d 4c 8f bf 12 ee 80 bf
       -0.49574506 -0.009751702 -1.1195084 -1.0072653
000060 3c da a5 bf 35 31 07 bf 77 76 4d bf 73 f4 c6 bc
       -1.2957225 -0.5280946 -0.8025889 -0.024286484
000070 54 92 81 be a4 a8 82 bf 5d f5 0f bf 82 9a a4 bf
       -0.25306952 -1.0207715 -0.5623377 -1.2859652
000080 ce 8f c5 bc 3c 33 31 bf 52 9e 15 bf a1 af 1e bf
       -0.024116423 -0.692188 -0.584447 -0.6198674
000090 7b 53 78 bf 06 29 0a bf 3e 24 96 be 9d e2 94 bf
       -0.9700238 -0.53968847 -0.29324526 -1.1631657
0000a0 63 02 82 bc 42 9c cf bf 2a 0b 86 be de cd b8 bf
       -0.015870279 -1.6219561 -0.26180393 -1.4437826
0000b0 1b cd 74 be 13 26 52 bf a7 d4 83 be 05 e0 07 bf
       -0.23906367 -0.82089347 -0.25748178 -0.530762
0000c0 1a fa c6 be 38 3a 34 be 0d 8b 83 bf 31 14 a9 bf
       -0.38862687 -0.17600334 -1.027681 -1.3209287
0000d0 ec 2c 5d be 7e 04 85 be b7 ae 2f bf 9d 56 ac be
       -0.21599168 -0.2597999 -0.6862597 -0.3365983
0000e0 51 a4 15 bc ea a6 40 bf b3 a5 be be 0b 8e 6b bf
       -0.009133414 -0.7525469 -0.37235793 -0.92013615
0000f0 f9 ee 4d bf fd 67 20 be af d5 74 bf 7e f9 c6 bd
       -0.8044277 -0.15664668 -0.95638555 -0.097155556
000100 aa e4 69 bf ef 31 05 bf 7c 9c 86 bf ce 8d 28 bf
       -0.9136454 -0.5202932 -1.0516505 -0.65841377
000110 77 d8 3f bf fa df 13 bf 84 ab 54 bf 06 52 73 be
       -0.74939674 -0.57763636 -0.8307421 -0.23761758
000120 8b e8 0b bf ab 95 c3 bf 6c 3a 36 bf 0b b0 8c be
       -0.5465171 -1.528005 -0.71182895 -0.2747806
000130 04 95 dd be a8 69 a5 bf 8b d8 91 bf 5f cf a4 bf
       -0.43277752 -1.2922869 -1.1394209 -1.2875785
000140 84 30 bf be 8a 01 b7 bf 02 c8 1b bf c7 d4 4b bf
       -0.37341702 -1.4297345 -0.6085206 -0.7962155
000150 71 ce 80 bf 51 42 87 bf 78 02 51 bd f0 d4 a8 bf
       -1.0063001 -1.0567113 -0.051027745 -1.3189983
000160 f2 4b 73 be 75 12 73 bf 69 2c a5 bf 9b 12 d7 be
       -0.2375944 -0.9495004 -1.2904178 -0.42006382
000170 64 bc 84 bf 17 35 81 bf 9e 05 9a be 9f 46 b3 bf
       -1.0369992 -1.0094327 -0.3008241 -1.4005927
000180 68 59 07 bf fd cf e8 be 9c 21 9e bb e9 ef 13 bf
       -0.528708 -0.45471182 -0.004825784 -0.5778795
000190 a2 c1 a8 bf 9d fa ff be 08 9e c1 be 02 4d 84 bf
       -1.3184092 -0.4999589 -0.3781588 -1.0336001
0001a0 b7 c3 14 bf ef 88 ba be 65 cb cb be 07 97 e3 be
       -0.5811114 -0.36432597 -0.39803615 -0.44451162
0001b0 ef 6a 1d bf 3b 88 9b be 2b 2e a2 be cf 5f 5b bf
       -0.6149129 -0.30377373 -0.31675848 -0.8569307
0001c0 75 e3 2b bf 9e bb 60 bf 13 88 43 bf 9e 0d b9 bf
       -0.67143947 -0.8778628 -0.7637951 -1.4457281
0001d0 5a 47 64 bf d2 5d 56 bf c0 60 86 bf 90 b0 c0 be
       -0.89171374 -0.8373691 -1.0498276 -0.37634706
0001e0 45 dd 4e be 8f 10 93 bf e7 b9 45 bf fc 50 95 bf
       -0.20201595 -1.1489428 -0.7723679 -1.166534
0001f0 2e 73 a6 bf 9f 2d b4 bc 7d 0a 93 bf a1 93 09 c0
       -1.30039 -0.02199441 -1.1487576 -2.1496356

hidden1.weight f4 [64, 128]
000000 b6 87 37 bf 32 c9 26 bf 82 7c dd be e8 0f 35 bf
       -0.71691453 -0.6515075 -0.43259054 -0.70727396
000010 d3 ff c8 be 3f ad 12 be 1f 6d 19 bf 8c 75 db 3d
       -0.39257678 -0.143239 -0.5993213 0.1071578
000020 79 87 a1 3b 2d a3 53 3d 04 fd 84 be 44 e9 df be
       0.0049294797 0.05166929 -0.25974286 -0.43732655
000030 4e f6 bd 3e 0b 9d 0c bd fc 1a 86 be aa c4 a1 bd
       0.37101978 -0.034329455 -0.26192462 -0.07898839
000040 a6 29 b8 3e 75 a6 eb be 19 74 81 3e 5c 2d dc be
       0.35969275 -0.46025434 0.25283888 -0.43003356
000050 98 dd 5d bd 2c cf a0 bd dc dc 0d bd 5a 39 cc bd
       -0.054166406 -0.07852015 -0.034634456 -0.099718764
000060 94 a7 df 3d d5 5f 86 be 2c bd 8a bd 19 62 aa be
       0.10920635 -0.2624499 -0.06774363 -0.33277968
000070 86 94 9b be 33 73 4a be bd b8 1c bf c2 4f dd be
       -0.30386752 -0.19770508 -0.6121939 -0.43224913
000080 b8 79 5e be 84 b9 03 bf 60 a6 87 be d5 48 10 3e
       -0.2172612 -0.5145495 -0.26494122 0.14090283
000090 7e 2d 17 bf 52 bc 0e bd b2 9b da be a0 df 35 bf
       -0.5905379 -0.034847565 -0.4269691 -0.7104435
0000a0 5a 8c d2 be cc 39 3e 3d 3a e7 a3 3d c8 b1 ab bd
       -0.41122705 0.04644184 0.08003087 -0.083835185
0000b0 ef 4f 86 be 61 03 a7 bd 6d e0 ab be 7e 0d 9b bd
       -0.2623286 -0.08154941 -0.3356966 -0.07570933
0000c0 83 6e 02 bf 49 ac a9 bd 8f 38 84 3e 60 0c 74 be
       -0.5094988 -0.08284814 0.258244 -0.23832846
0000d0 19 75 46 bf 11 b0 21 bf a4 b3 98 be 32 66 db 3c
       -0.77522427 -0.6315928 -0.29824555 0.026782129
0000e0 b3 31 fe be 0f 70 35 be 14 ab 48 3d 69 0a 7a 3e
       -0.49647292 -0.17718528 0.048991278 0.24418034
0000f0 49 76 bb bd 26 7e 84 be bd 99 39 bf 62 12 df be
       -0.091534205 -0.25877494 -0.7250021 -0.43568712
000100 ee 0c bc bd 8d e9 28 bd a9 9d b3 be b5 b0 89 3e
       -0.09182154 -0.041238356 -0.35081223 0.2689263
000110 d8 a2 ca be 1b ce 3a 3c 79 7a 12 3e 44 e4 7e be
       -0.39577365 0.011401678 0.14304532 -0.24891764
000120 20 3f b5 3e 49 b8 5f 3e 6c 03 df be b2 96 01 3e
       0.35399723 0.21847643 -0.43557298 0.12655142
000130 63 99 34 be 00 36 3b be a4 68 b9 bd a6 58 a7 be
       -0.17636637 -0.18282318 -0.09053162 -0.3268482
000140 3b c1 1d 39 af 96 37 bf 34 bf 3b bc 52 4d ef be
       0.0001504467 -0.717143 -0.011459161 -0.46738678
000150 7c f9 d2 be 69 58 a0 3e 8c eb c9 3d 3b 75 b3 bc
       -0.41205966 0.31317452 0.0985938 -0.021906486
000160 28 a5 aa be 15 d4 9e be f2 38 1b bf f8 0c 19 bf
       -0.3332913 -0.3102118 -0.60633767 -0.59785414
000170 c7 23 9c be da 79 9e be 38 05 f1 3c 90 52 8e 3e
       -0.30496046 -0.3095234 0.029421434 0.27797365
000180 6e 47 f4 3e 71 5d a3 3e 9f 52 23 bf 02 d3 40 bd
       0.47710747 0.31907228 -0.63797945 -0.047076233
000190 ca fe 33 3b 0c 05 8f bd e3 47 4b 3e 3a bc ce be
       0.0027465099 -0.069833845 0.19851641 -0.4037798
0001a0 5f 2c 0e bf 24 df ba bc 65 27 6d be 99 7b 3a bd
       -0.55536455 -0.02281148 -0.23159559 -0.04552803
0001b0 14 ef ec bd f4 1f 0f bf 88 ea b0 3e 89 ba b2 3c
       -0.11569038 -0.5590813 0.34553933 0.021817463
0001c0 70 fc 94 3e 8b 66 a5 3d 40 22 a6 3d dc ac be be
       0.29098845 0.08076199 0.081120014 -0.37241256
0001d0 e0 4a c0 3e 65 f3 04 be d5 45 7f be 59 81 dc 3d
       0.37557125 -0.12983473 -0.24928983 0.107668586
0001e0 57 83 c1 3e c8 7c 65 bd 07 0c a8 be 67 bd 48 3d
       0.37795517 -0.056027204 -0.32821676 0.049008753
0001f0 be 35 be 3c 3e c3 35 bf 7e ab 2f bb 24 bf 88 3d
       0.023218986 -0.7100104 -0.0026805098 0.06677082
000200 45 e5 00 bd 9c 1a de bd d2 f3 00 be cc 93 76 bc
       -0.03146865 -0.10844919 -0.1259301 -0.015049886
000210 46 15 e0 bc 43 31 38 bd 35 68 3a be b8 63 d0 3c
       -0.027353894 -0.044968855 -0.18203814 0.025438175
000220 28 a0 91 bc e3 d6 82 bd cd 2c 11 bd a9 4d b8 bd
       -0.017776564 -0.06388643 -0.035443116 -0.089991875
000230 33 f4 97 bd 36 b6 e0 bd 88 b6 dc 3c b9 03 c7 bd
       -0.07419624 -0.10972254 0.026942506 -0.09717507
000240 6d 38 f8 bd 4c c2 b3 bd b1 fc 28 bd b5 5c 3d bd
       -0.12120137 -0.087772936 -0.04125661 -0.04623099
000250 4d 84 82 bd c4 42 d8 3c 25 5c 8d bd 42 9f 0c be
       -0.063728906 0.026399024 -0.06902341 -0.13732627
000260 7e 36 49 3d cd 3e 9a 3d e4 b2 e4 bc 0d 36 2b be
       0.049124233 0.075315095 -0.027917333 -0.16719837
000270 67 a9 73 bd fc 1f 1f bd d2 30 0f be a4 f5 5d bc
       -0.059487727 -0.038848862 -0.13983467 -0.013547335
000280 70 98 19 3c 0b 56 8b 3d 81 83 2e be 58 38 c7 bc
       0.009374723 0.06803521 -0.17042352 -0.024318859
000290 ae de ba bd 54 9c 88 bd 46 50 5d 3d e0 74 9c bd
       -0.09124504 -0.06670442 0.054031633 -0.0763948
0002a0 04 2b 8f bd 5b 96 be bd fd 56 a6 3d 41 4a 2b bd
       -0.069906265 -0.09306022 0.081220604 -0.04181886
0002b0 17 89 13 bd 7a a4 ce bd 45 f5 95 3d 3c 77 7b bd
       -0.03601941 -0.10089965 0.07322172 -0.061393008
0002c0 08 2f cc bd 9e d9 32 be b1 98 3f bd ed 8d 86 bd
       -0.09969908 -0.17465827 -0.046776477 -0.06570039
0002d0 74 0a 78 bd d8 1e b2 bc b8 4c 07 be e0 16 e9 bd
       -0.060556844 -0.021743223 -0.1321286 -0.11381316
0002e0 1b 1e 38 bd ad 79 21 be 50 6c 1b be 97 c9 c5 bd
       -0.044950586 -0.15769072 -0.15178037 -0.09657591
0002f0 01 fa 9b 3d 67 2a 4a bd f0 08 6b bd d2 2c 3a 3d
       0.07616044 -0.049356844 -0.05738157 0.0454529
000300 82 d1 59 3d c2 db 6d bd fd 15 24 be b9 f5 b2 bc
       0.053178318 -0.058070906 -0.16024013 -0.021845685
000310 1e 48 23 be 2d aa 9b 3d 54 42 13 3d fe 15 3b 3d
       -0.1594548 0.07600818 0.035951927 0.04567527
000320 70 36 c3 3b 48 96 d0 bd 15 ee a6 3d e0 36 b8 bb
       0.005957417 -0.10184914 0.08150879 -0.005621776
000330 4f 3c 5a bd 92 e3 38 be c9 aa 37 be 59 c6 cb bd
       -0.05328017 -0.18055561 -0.17936243 -0.09949941
000340 3c 18 cd bd 57 28 e3 bd d8 08 c5 3c bd 35 e2 bd
       -0.10014388 -0.110916786 0.024052069 -0.11045406
000350 5d 72 b2 bd 06 f8 39 3d b1 54 19 be 48 50 9f bd
       -0.08713219 0.04540255 -0.14973713 -0.07778984
000360 1e b6 56 bd ca 4e 0d 3d 32 5f f3 bc 38 52 75 bd
       -0.052419774 0.034498967 -0.029708479 -0.059892863
000370 d0 05 9f 3c a8 aa 5d 3c 8e 07 53 bd 38 3e 84 3c
       0.019411951 0.013529457 -0.051520877 0.01614295
000380 fc 50 c2 bc 48 70 2c bc 84 d6 9a bd a3 05 fe bd
       -0.023720257 -0.010524817 -0.07560447 -0.12403419
000390 4e 90 4f 3d 80 9c d6 3b 10 67 3b 3c a8 3e d6 bc
       0.05067473 0.006549418 0.011438146 -0.026152924
0003a0 bd 42 b1 bd ac 34 b7 3c 9c 21 b5 bc a6 12 5e 3d
       -0.086553074 0.022363983 -0.022110753 0.054217003
0003b0 71 c1 ea bd e8 3d 99 bd 4f 93 9a bd 10 33 d7 3b
       -0.11462677 -0.07482511 -0.07547628 0.0065673664
0003c0 f8 72 93 3c db 4b a3 bd 26 36 9c bd 96 ac a5 bd
       0.017999157 -0.07973453 -0.076275155 -0.08089559
0003d0 97 83 04 bd 35 da 46 bd a0 de bb bc 5e 4c e2 bd
       -0.032352056 -0.048547942 -0.022933304 -0.11049722
0003e0 5c 07 00 be 57 b5 0b bd 90 98 cc 3b e0 29 16 be
       -0.12502807 -0.034108486 0.006243773 -0.14664412
0003f0 50 09 29 bc 2b f2 01 bd 32 3f 6f 3d 6f 6a b6 bd
       -0.010317162 -0.03172509 0.058409877 -0.08907019

hidden1.bias f4 [64]
000000 e6 44 6d bf c1 6f 20 be c4 a1 08 c0 75 60 fd be
       -0.92683256 -0.1566763 -2.1348734 -0.49487653
000010 ea ab 72 bf 7e 4c 88 bf 83 bb 0b be b8 6a 49 bf
       -0.9479357 -1.0648344 -0.13645749 -0.78678465
000020 a9 ba be be e7 ce 1e c0 f7 9f f0 3e 52 f2 9a be
       -0.37251785 -2.4813783 0.46997043 -0.30263
000030 90 14 86 be b0 8b 25 bf 9d f8 1d be a0 df 92 3e
       -0.26187563 -0.6466627 -0.1542687 0.28686237
000040 1b a3 06 be 92 16 cf bf 9e 03 6d bf 9f 19 99 bd
       -0.13148157 -1.6178763 -0.92583644 -0.0747559
000050 73 5d 82 bf d1 4c cd be 5f 94 19 bf 1b d6 76 bf
       -1.0184768 -0.4009767 -0.5999202 -0.9642045
000060 53 03 5b be 4b dc e0 be e3 b2 3d bf 27 63 0d bf
       -0.21387987 -0.4391807 -0.74101084 -0.5522942
000070 d6 cb 94 bd a7 ad c7 be 19 e8 a3 bf a5 3f 18 bf
       -0.07265441 -0.38999674 -1.2805206 -0.59472114
000080 51 f2 50 bf 48 41 0f 40 c8 79 a9 bf d1 32 57 bf
       -0.81619745 2.2383595 -1.324029 -0.84061915
000090 b0 99 10 c0 eb f8 e0 bc f6 a1 3e bf 2d d9 53 be
       -2.2593803 -0.027462443 -0.7446588 -0.20688315
0000a0 45 b0 40 bf d7 e4 b6 bf a6 5d 3f be 19 33 84 be
       -0.75268966 -1.4288586 -0.18688068 -0.25820234
0000b0 b3 06 7b bf 16 0a 74 be 06 de 2e 3f 35 a6 17 3f
       -0.980571 -0.23831972 0.6830753 0.59237987
0000c0 21 3c 88 3f 06 05 28 c0 6a ef 07 c0 20 4d 30 3d
       1.064335 -2.6253066 -2.1239877 0.043042302
0000d0 20 09 00 bf 6f 00 92 be f0 0c 9d bf b2 83 4c 3f
       -0.50013924 -0.28515956 -1.2269573 0.7988845
0000e0 ff a4 e8 be 77 7b 42 bf b5 55 23 c0 0c a5 5d 3e
       -0.45438382 -0.7596964 -2.5521061 0.21644992
0000f0 e8 1b 21 c0 0d d9 88 bf e2 c6 a1 be 58 e9 48 bf
       -2.5173283 -1.0691239 -0.31597048 -0.78481054

hidden2.weight f4 [8, 64]
000000 ff 53 9f 3c e5 b6 ac bc 17 7a 98 bf 8e b6 61 3c
       0.019449232 -0.021083305 -1.1912259 0.013776435
000010 0b 67 13 bf 1a 7f 50 3f 03 ee 77 bf 1d 77 a2 3f
       -0.57579106 0.8144394 -0.9684755 1.26926
000020 3e 3c 46 3e 97 0c 32 bf 8a b1 9b 3f 6b 81 dc bc
       0.19358918 -0.6955046 1.2163556 -0.02691718
000030 34 4b fa 3e 8b bd 8f be 32 80 a5 be 85 3c 9b 3f
       0.488855 -0.28074297 -0.32324368 1.2127844
000040 da 88 d2 3c 98 fd 17 3f 46 b3 70 bf 56 3d 71 3d
       0.025700022 0.5937133 -0.9402355 0.058896385
000050 d7 8f cf 3d 2d 87 9e be d6 03 00 bf fc d3 e5 3d
       0.10134857 -0.30962506 -0.50005853 0.112220734
000060 f4 19 bb bc 97 b1 14 3f 37 8c b5 3e aa 44 cf 3d
       -0.022839524 0.5808348 0.35458538 0.101205185
000070 63 2d 82 bc 65 47 77 3c ea 37 9c bf ab 8a 95 be
       -0.015890783 0.015092705 -1.2204564 -0.29207358
000080 68 5d d9 be 29 6e 91 3f bb d4 80 bf e9 a9 61 bf
       -0.42454076 1.1361743 -1.006492 -0.8814989
000090 f8 7d 1e be db e2 0c be 03 64 89 bf e0 37 fb 3c
       -0.15477741 -0.13758413 -1.0733646 0.030666292
0000a0 93 c5 d7 3d 7e d6 e8 3d d2 27 47 bc 18 6b fe bb
       0.10535731 0.11369036 -0.01215549 -0.0077642314
0000b0 06 be 24 3d 4d eb 9b 3f 0e 87 e6 3f cb e9 97 3f
       0.040220283 1.2181183 1.8009965 1.1868223
0000c0 9e 00 85 3f 73 7a 9e be 60 6f 8c 3e 8a 7f d4 3d
       1.0390813 -0.30952796 0.27428722 0.10375889
0000d0 64 bd c2 bd da 8d df bd 5b 21 07 bf 89 b9 73 40
       -0.0950878 -0.10915728 -0.5278527 3.8081992
0000e0 72 67 ad be 51 56 5b 3e 80 24 1c 3f 1e d9 96 3f
       -0.33867985 0.21419646 0.60993195 1.1785009
0000f0 d5 02 46 bf e4 44 08 be 2a 76 50 3e 65 de a5 bf
       -0.7734807 -0.1330753 0.20357576 -1.2958494
000100 e2 cc db bd 18 32 a5 3d d2 6e 00 3f a8 7b 42 be
       -0.10732438 0.08066195 0.501691 -0.18992484
000110 d0 84 6f 3f 1d ad af 3f 17 e9 9c 3f a4 43 03 c0
       0.9356203 1.3724705 1.2258633 -2.0510035
000120 c7 27 3e 3f 6a 09 af 3d 62 5b 6c 3f 57 52 9a 3d
       0.74279445 0.085467175 0.9232694 0.07535236
000130 fe b7 bb 3d b7 3b 20 bf a0 69 c3 be c3 bd 8e 3f
       0.09165953 -0.6259112 -0.38166523 1.1151661
000140 e8 ed 8c bd f9 49 a1 3f 0a d2 9e be 00 87 71 3d
       -0.068813145 1.26007 -0.31019622 0.058966637
000150 67 c3 c7 be ea ce 95 3e de 85 88 bf 1a d0 1b 3e
       -0.39016268 0.29259425 -1.0665853 0.15216103
000160 d9 df 8d 3d f0 32 57 bf 0b 44 6b be 2e cb 79 be
       0.06927461 -0.840621 -0.22975175 -0.24393913
000170 7c 25 ca 3d f4 14 8d 3e 89 c1 88 bf 18 8c 2c be
       0.09870431 0.27555048 -1.0684062 -0.16850317
000180 f7 b9 81 bd 94 de d8 3f 61 29 a0 bd 3e 33 6c bf
       -0.06334298 1.6942925 -0.078203924 -0.9226569
000190 45 9b 2e 3f e1 f2 98 3e 5a c4 8a 3f b9 ed 0c 3e
       0.6820567 0.29872802 1.0841172 0.13762559
0001a0 ba 88 97 3e 6a 86 09 3d 81 56 51 bd 8c d7 07 be
       0.29596502 0.033575453 -0.051107887 -0.13265818
0001b0 72 4a a5 be f8 14 25 bf 90 3b 17 3f 17 47 9a 3f
       -0.3228336 -0.6448512 0.5907526 1.2052945
0001c0 73 73 d7 3f 72 95 04 3f 92 48 ee be 69 25 4e 3f
       1.6832107 0.51790535 -0.46539742 0.80525833
0001d0 22 f7 36 bc ec 38 4c 3d 38 3d 77 3d 54 e0 cd bf
       -0.0111673195 0.049858972 0.060361117 -1.6084085
0001e0 4a 49 80 3e 60 aa 99 be a4 71 a9 3f a9 71 8b 3f
       0.25055915 -0.30012798 1.3237805 1.0894061
0001f0 a9 1f 3d 3f f5 c1 5f 3e 98 ce 1a bf 6e 65 d6 bd
       0.73876435 0.21851332 -0.6047149 -0.10468565
000200 ed 09 07 3d 18 68 20 3d a7 21 bd be f8 07 89 3d
       0.03296845 0.03916177 -0.36939737 0.06690973
000210 b6 56 56 be 02 b7 9e bd 58 07 3c be c0 c1 bd bd
       -0.20931515 -0.0774975 -0.18362176 -0.092654705
000220 59 4f 09 bd 74 de f1 3d 72 8c 5f 3d a2 10 ec 3d
       -0.033522937 0.11810008 0.0545773 0.1152661
000230 7c 4a cb bd 24 74 d4 bd 5d 9d 8d 3b af ab 19 bd
       -0.09926316 -0.103737146 0.0043217377 -0.037517246
000240 10 74 9e bc 29 29 c2 3c 2c b0 56 3d e4 ed 84 3d
       -0.019342452 0.023701267 0.052414104 0.064906865
000250 96 9a aa bd 1a 36 88 3d 25 c2 1c be d0 9c c6 bd
       -0.08330266 0.06650944 -0.15308435 -0.09697878
000260 ac 04 f4 3d 05 c8 92 be 12 b3 c6 bd 8e c0 25 3d
       0.119149536 -0.28668228 -0.09702124 0.040466838
000270 e0 2b be bb cc 70 8d bd 0b 96 df be 44 e8 b3 bd
       -0.00580357 -0.0690628 -0.4366916 -0.087845355
000280 f0 77 9e 3c 6d b8 ef be 9a 2c 0d 3c 5e 40 4a be
       0.0193443 -0.46820393 0.008616591 -0.19751117
000290 98 3c 3a be 96 5d 79 3d 0e 7f f1 bd 38 ee 8b 3d
       -0.18187177 0.060880266 -0.11791812 0.06832546
0002a0 b2 fb e5 bd 3b d1 89 bd 10 39 db 3d 58 f3 07 bd
       -0.11229648 -0.06729361 0.10704243 -0.033191055
0002b0 4c bc c5 3d 60 44 b2 bb 43 ef a5 bd 96 95 e6 be
       0.096550554 -0.00544028 -0.08102276 -0.45036
0002c0 6a 7a cb bd 48 c4 ed 3d 82 3b a4 bd 1a f6 29 be
       -0.09935458 0.11609703 -0.08019163 -0.16597787
0002d0 f4 32 a9 3d a0 da f6 bc b8 cf 79 3b d9 c1 9c be
       0.08261672 -0.030133545 0.0038118195 -0.30616644
0002e0 c4 41 6e 3d 18 e1 c7 3c 4d 8b 17 bd 84 07 33 3d
       0.058168188 0.024399325 -0.036998082 0.04370834
0002f0 d0 d0 a7 be 8e f7 a5 3d 6a cd ac be ac f2 b7 be
       -0.327765 0.08103858 -0.33750468 -0.3592733
000300 1a fa 73 bd 14 ee c9 bd 2a 0e a8 3c 08 34 b5 bd
       -0.059564687 -0.09859863 0.020514566 -0.08847815
000310 c0 a6 10 3b f7 34 c4 be 09 77 2d be b0 83 7b bc
       0.0022072047 -0.3832166 -0.1693994 -0.015351221
000320 92 16 07 be 50 a3 7a 3c b1 54 d6 be 0c 27 e1 3d
       -0.13192204 0.015297726 -0.4186149 0.10993776
000330 44 4b ec bd f6 4a e4 bd a3 fc 45 3d cb 08 f0 bd
       -0.11537793 -0.1114711 0.048336636 -0.11720427
000340 00 60 c0 bb a1 89 a1 bd e6 a4 ba be 30 d2 76 bc
       -0.005870819 -0.07887579 -0.36453933 -0.015064761
000350 6c d5 89 bd 20 ce b1 3d 99 da 22 be 9e f2 e2 bd
       -0.0673016 0.08681893 -0.15903701 -0.11081432
000360 78 8f 3f 3d aa 40 99 be ee fe bc 3d fc 8d 11 be
       0.04676768 -0.29932147 0.092283115 -0.14214319
000370 44 01 8e bd fe 91 a9 3d 1f 96 d4 be 2e d0 fd bd
       -0.06933835 0.08279799 -0.41520783 -0.12393223
000380 c8 6f 19 3d 35 eb 53 be 70 45 04 bd 58 39 bc bd
       0.03746012 -0.20695193 -0.032292783 -0.09190625
000390 8e 4e 8f bb 16 36 6d 3d 22 01 91 bd c0 6d 27 3b
       -0.004373378 0.05791291 -0.07080294 0.0025547594
0003a0 c2 4b b3 bd 46 52 23 be 2a 45 f4 bd 7c 37 23 bd
       -0.08754684 -0.15949354 -0.119272545 -0.039847836
0003b0 c4 0e 4f 3d 2e bb d0 3d f5 af dc bd a0 a9 f6 bd
       0.05055119 0.10191952 -0.10775749 -0.12044072
0003c0 57 e4 ac bd 1c 91 d5 3d 76 d6 83 be 99 c3 96 bd
       -0.0844199 0.10428068 -0.25749558 -0.07361526
0003d0 b2 f1 cd bd 80 49 7c bb 7f cf b8 bc 63 3d 01 bd
       -0.10055865 -0.0038495958 -0.02255988 -0.031552684
0003e0 00 ae ba bb f2 9a 8c bd 18 32 3d be 54 49 f1 bd
       -0.005697012 -0.06865491 -0.1847614 -0.11781564
0003f0 d4 55 fc bc 22 05 b0 3d cb c1 57 be 9e f8 10 be
       -0.030802645 0.08594729 -0.2107002 -0.1415734

hidden2.bias f4 [8]
000000 c6 ae 9e 3f 2e f7 e0 3f d5 2a bc be 17 1c 48 bd
       1.2397087 1.7575433 -0.36751428 -0.048854914
000010 18 73 e0 bc 83 88 d3 bd e8 0f c2 bd e7 a3 a5 be
       -0.027398631 -0.10328772 -0.0947569 -0.3235161

output.weight f4 [1, 8]
000000 3e 1b 1b 3e c9 6d 53 be b6 b3 60 be b8 14 0f 3e
       0.15147111 -0.20647348 -0.21943554 0.13972747
000010 1b ad 2b be b8 43 57 bd 54 a8 a0 3d 54 33 a8 be
       -0.16765253 -0.052554816 0.07844606 -0.3285166
